…
    score = model.evaluate(dataset.data['valid_X'], dataset.data['valid_Y'], verbose=config["verbose"])
    print(model_name.ljust(15), "validation:", '| loss:', score[0], '| accuracy:', score[1])

print("time:", int(time.time() - timer_start), "s")
Output
./src/keras/examples/main.py 
config {'verbose': False, 'epochs': 12, 'batch_size': 128, 'input_shape': (28, 28, 1), 'output_shape': 10}
SequentialCNN
Model: "sequential"
_________________________________________________________________
Layer (type)                 Output Shape              Param #   
=================================================================
conv2d (Conv2D)              (None, 26, 26, 32)        320       
_________________________________________________________________
conv2d_1 (Conv2D)            (None, 24, 24, 64)        18496     
_________________________________________________________________
max_pooling2d (MaxPooling2D) (None, 12, 12, 64)        0         
_________________________________________________________________
dropout (Dropout)            (None, 12, 12, 64)        0         
_________________________________________________________________
flatten (Flatten)            (None, 9216)              0         
_________________________________________________________________
dense (Dense)                (None, 128)               1179776   
_________________________________________________________________
dropout_1 (Dropout)          (None, 128)               0         
_________________________________________________________________
dense_1 (Dense)              (None, 10)                1290      
=================================================================
Total params: 1,199,882
Trainable params: 1,199,882
Non-trainable params: 0
_________________________________________________________________
FunctionalCNN
Model: "FunctionalCNN"
_________________________________________________________________
Layer (type)                 Output Shape              Param #   
=================================================================
input_1 (InputLayer)         [(None, 28, 28, 1)]       0         
_________________________________________________________________
conv2d_2 (Conv2D)            (None, 26, 26, 32)        320       
_________________________________________________________________
conv2d_3 (Conv2D)            (None, 24, 24, 64)        18496     
_________________________________________________________________
max_pooling2d_1 (MaxPooling2 (None, 12, 12, 64)        0         
_________________________________________________________________
dropout_2 (Dropout)          (None, 12, 12, 64)        0         
_________________________________________________________________
flatten_1 (Flatten)          (None, 9216)              0         
_________________________________________________________________
dense_2 (Dense)              (None, 128)               1179776   
_________________________________________________________________
dropout_3 (Dropout)          (None, 128)               0         
_________________________________________________________________
dense_3 (Dense)              (None, 10)                1290      
=================================================================
Total params: 1,199,882
Trainable params: 1,199,882
Non-trainable params: 0
_________________________________________________________________
ClassCNN
Model: "class_cnn"
_________________________________________________________________
Layer (type)                 Output Shape              Param #   
=================================================================
…
