…
2019-01-21 16:33:24.538298: I tensorflow/core/common_runtime/gpu/gpu_device.cc:988]      0
2019-01-21 16:33:24.538312: I tensorflow/core/common_runtime/gpu/gpu_device.cc:1001] 0:   N
2019-01-21 16:33:24.538695: I tensorflow/core/common_runtime/gpu/gpu_device.cc:1115] Created TensorFlow device (/job:localhost/replica:0/task:0/device:GPU:0 with 9966 MB memory) -&gt; physical GPU (device: 0, name: GeForce RTX 2080 Ti, pci bus id: 0000:02:00.0, compute capability: 7.5)
&lt;denchmark-h:hr&gt;&lt;/denchmark-h&gt;

&lt;denchmark-h:h1&gt;Layer (type)                 Output Shape              Param #&lt;/denchmark-h&gt;

conv2d_1 (Conv2D)            (None, 128, 128, 32)      320
&lt;denchmark-h:hr&gt;&lt;/denchmark-h&gt;

activation_1 (Activation)    (None, 128, 128, 32)      0
&lt;denchmark-h:hr&gt;&lt;/denchmark-h&gt;

conv2d_2 (Conv2D)            (None, 126, 126, 32)      9248
&lt;denchmark-h:hr&gt;&lt;/denchmark-h&gt;

activation_2 (Activation)    (None, 126, 126, 32)      0
&lt;denchmark-h:hr&gt;&lt;/denchmark-h&gt;

max_pooling2d_1 (MaxPooling2 (None, 63, 63, 32)        0
&lt;denchmark-h:hr&gt;&lt;/denchmark-h&gt;

dropout_1 (Dropout)          (None, 63, 63, 32)        0
&lt;denchmark-h:hr&gt;&lt;/denchmark-h&gt;

conv2d_3 (Conv2D)            (None, 61, 61, 64)        18496
&lt;denchmark-h:hr&gt;&lt;/denchmark-h&gt;

activation_3 (Activation)    (None, 61, 61, 64)        0
&lt;denchmark-h:hr&gt;&lt;/denchmark-h&gt;

max_pooling2d_2 (MaxPooling2 (None, 30, 30, 64)        0
&lt;denchmark-h:hr&gt;&lt;/denchmark-h&gt;

dropout_2 (Dropout)          (None, 30, 30, 64)        0
&lt;denchmark-h:hr&gt;&lt;/denchmark-h&gt;

flatten_1 (Flatten)          (None, 57600)             0
&lt;denchmark-h:hr&gt;&lt;/denchmark-h&gt;

dense_1 (Dense)              (None, 256)               14745856
&lt;denchmark-h:hr&gt;&lt;/denchmark-h&gt;

activation_4 (Activation)    (None, 256)               0
&lt;denchmark-h:hr&gt;&lt;/denchmark-h&gt;

dropout_3 (Dropout)          (None, 256)               0
&lt;denchmark-h:hr&gt;&lt;/denchmark-h&gt;

dense_2 (Dense)              (None, 34)                8738
&lt;denchmark-h:hr&gt;&lt;/denchmark-h&gt;

&lt;denchmark-h:h1&gt;activation_5 (Activation)    (None, 34)                0&lt;/denchmark-h&gt;

Total params: 14,782,658
Trainable params: 14,782,658
Non-trainable params: 0
&lt;denchmark-h:hr&gt;&lt;/denchmark-h&gt;

2019-01-21 16:33:25.223019: I tensorflow/compiler/xla/service/service.cc:149] XLA service 0x7f6f20001130 executing computations on platform CUDA. Devices:
2019-01-21 16:33:25.223063: I tensorflow/compiler/xla/service/service.cc:157]   StreamExecutor device (0): GeForce RTX 2080 Ti, Compute Capability 7.5
…
