…
W0301 15:14:05.699281 140146440931136 deprecation.py:506] From /home/ricks/miniconda3/envs/datascience_tf_new/lib/python3.6/site-packages/tensorflow/python/ops/init_ops.py:1257: calling VarianceScaling.__init__ (from tensorflow.python.ops.init_ops) with dtype is deprecated and will be removed in a future version.
Instructions for updating:
Call initializer instance with the dtype argument instead of passing it to the constructor
Model: "sequential"
_________________________________________________________________
Layer (type)                 Output Shape              Param #   
=================================================================
conv2d (Conv2D)              (None, 12, 12, 12)        312       
_________________________________________________________________
dropout (Dropout)            (None, 12, 12, 12)        0         
_________________________________________________________________
conv2d_1 (Conv2D)            (None, 5, 5, 18)          1962      
_________________________________________________________________
dropout_1 (Dropout)          (None, 5, 5, 18)          0         
_________________________________________________________________
conv2d_2 (Conv2D)            (None, 4, 4, 24)          1752      
_________________________________________________________________
flatten (Flatten)            (None, 384)               0         _________________________________________________________________
dense (Dense)                (None, 150)               57750     
_________________________________________________________________
dense_1 (Dense)              (None, 47)                7097      
=================================================================
Total params: 68,873
Trainable params: 68,873
Non-trainable params: 0
_________________________________________________________________
[None, 12, 12, 12]
[None, 12, 12, 12]
[None, 5, 5, 18]
[None, 5, 5, 18]
[None, 4, 4, 24]
[None, 384]
[None, 150]
[None, 47]
(112800, 28, 28, 1)
2019-03-01 15:14:14.039015: I tensorflow/core/platform/cpu_feature_guard.cc:142] Your CPU supports instructions that this TensorFlow binary was not compiled to use: AVX2 FMA
…
