…
maxpool_2 (TimeDistributed)     (None, 4, 13, 13, 64 0           conv2D_2[0][0]                   
__________________________________________________________________________________________________
batchnorm_2 (TimeDistributed)   (None, 4, 13, 13, 64 256         maxpool_2[0][0]                  
__________________________________________________________________________________________________
conv2D_3 (TimeDistributed)      (None, 4, 13, 13, 12 73856       batchnorm_2[0][0]                
__________________________________________________________________________________________________
maxpool_3 (TimeDistributed)     (None, 4, 6, 6, 128) 0           conv2D_3[0][0]                   
__________________________________________________________________________________________________
batchnorm_3 (TimeDistributed)   (None, 4, 6, 6, 128) 512         maxpool_3[0][0]                  
__________________________________________________________________________________________________
flatten (TimeDistributed)       (None, 4, 4608)      0           batchnorm_3[0][0]                
__________________________________________________________________________________________________
dropout (TimeDistributed)       (None, 4, 4608)      0           flatten[0][0]                    
__________________________________________________________________________________________________
unified_lstm (UnifiedLSTM)      (None, 4, 2048)      54534144    dropout[0][0]                    
__________________________________________________________________________________________________
time_distributed (TimeDistribut (None, 4, 1)         2049        unified_lstm[0][0]               
__________________________________________________________________________________________________
flatten_1 (Flatten)             (None, 4)            0           time_distributed[0][0]           
__________________________________________________________________________________________________
softmax (Softmax)               (None, 4)            0           flatten_1[0][0]                  
__________________________________________________________________________________________________
dot (Dot)                       (None, 2048)         0           unified_lstm[0][0]               
                                                                 softmax[0][0]                    
__________________________________________________________________________________________________
dense_1 (Dense)                 (None, 1024)         2098176     dot[0][0]                        
__________________________________________________________________________________________________
dropout_1 (Dropout)             (None, 1024)         0           dense_1[0][0]                    
__________________________________________________________________________________________________
dense_2 (Dense)                 (None, 512)          524800      dropout_1[0][0]                  
__________________________________________________________________________________________________
dropout_2 (Dropout)             (None, 512)          0           dense_2[0][0]                    
__________________________________________________________________________________________________
dense_3 (Dense)                 (None, 2)            1026        dropout_2[0][0]                  
==================================================================================================
Total params: 57,263,139
Trainable params: 57,262,627
Non-trainable params: 512
__________________________________________________________________________________________________
&lt;/denchmark-code&gt;

	</description>
	<comments>
		<comment id='1' author='Jsevillamol' date='2019-05-01T15:27:38Z'>
…
