…
y_pred = model.predict(x)
print("Predict successful: ", y_pred.shape)

print("Begin training with fit")
model.fit(x, y, epochs=10)
print("Fit successful")

print("Begin training with train_on_batch")
for i in range(10):
    model.train_on_batch(x, y)
print("On batch successful")
&lt;/denchmark-code&gt;

Other info / logs
Output and stack trace:
&lt;denchmark-code&gt;Model: "sequential"
_________________________________________________________________
Layer (type)                 Output Shape              Param #   
=================================================================
conv2d (Conv2D)              (None, 111, 111, 1)       28        
_________________________________________________________________
conv2d_1 (Conv2D)            (None, 55, 55, 1)         10        
_________________________________________________________________
conv2d_2 (Conv2D)            (None, 27, 27, 1)         10        
_________________________________________________________________
conv2d_3 (Conv2D)            (None, 13, 13, 1)         10        
_________________________________________________________________
conv2d_4 (Conv2D)            (None, 6, 6, 1)           10        
_________________________________________________________________
conv2d_5 (Conv2D)            (None, 2, 2, 1)           10        
_________________________________________________________________
conv2d_6 (Conv2D)            (None, 1, 1, 1)           5         
=================================================================
Total params: 83
Trainable params: 83
Non-trainable params: 0
_________________________________________________________________
GPU is available: True
x (10, 224, 224, 3)
y (10, 1, 1, 1)
Predict successful:  (10, 1, 1, 1)
Begin training with fit
Train on 10 samples
Epoch 1/10

10/10 [==============================] - 1s 82ms/sample - loss: 0.6654
…
