…
Can change strides instead of batch_shape[1]
Can use MaxPooling1D w/ strides &gt; 1
padding='valid' leads to ZeroPadding1D, but it doesn't change build order (don't know why)

&lt;denchmark-h:hr&gt;&lt;/denchmark-h&gt;

model_A.summary():
Layer (type)                    Output Shape         Param #     Connected to     
==================================================================================
input_1 (InputLayer)            [(32, 240, 4)]       0                            
__________________________________________________________________________________
conv1d (Conv1D)                 (32, 2, 16)          1296        input_1[0][0]    
__________________________________________________________________________________
conv1d_1 (Conv1D)               (32, 2, 16)          12816       input_1[0][0]    
__________________________________________________________________________________
bn_1 (BatchNormalization)       (32, 2, 16)          64          conv1d[0][0]     
__________________________________________________________________________________
bn_2 (BatchNormalization)       (32, 2, 16)          64          conv1d_1[0][0]   
__________________________________________________________________________________
concatenate (Concatenate)       (32, 2, 32)          0           bn_1[0][0]       
                                                                 bn_2[0][0]       
__________________________________________________________________________________
gap_0 (GlobalAveragePooling1D)  (32, 32)             0           concatenate[0][0]
__________________________________________________________________________________
dense (Dense)                   (32, 1)              33          gap_0[0][0]      
model_B.summary() (note the swapped layers)
input_2 (InputLayer)            [(32, 250, 4)]       0                               
_____________________________________________________________________________________
conv1d_2 (Conv1D)               (32, 2, 16)          1296        input_2[0][0]       
_____________________________________________________________________________________
bn_1 (BatchNormalization)       (32, 2, 16)          64          conv1d_2[0][0]      
_____________________________________________________________________________________
conv1d_3 (Conv1D)               (32, 3, 16)          12816       input_2[0][0]       
_____________________________________________________________________________________
zero_padding1d (ZeroPadding1D)  (32, 3, 16)          0           bn_1[0][0]          
_____________________________________________________________________________________
bn_2 (BatchNormalization)       (32, 3, 16)          64          conv1d_3[0][0]      
_____________________________________________________________________________________
concatenate_1 (Concatenate)     (32, 3, 32)          0           zero_padding1d[0][0]
                                                                 bn_2[0][0]          
_____________________________________________________________________________________
gap_0 (GlobalAveragePooling1D)  (32, 32)             0           concatenate_1[0][0] 
_____________________________________________________________________________________
dense_1 (Dense)                 (32, 1)              33          gap_0[0][0]  
&lt;denchmark-h:hr&gt;&lt;/denchmark-h&gt;

Minimally reproducible code:
# also works with `from keras`
from tensorflow.keras.layers import Input, Conv1D, ZeroPadding1D, concatenate
from tensorflow.keras.layers import BatchNormalization, Dense, GlobalAveragePooling1D
from tensorflow.keras.models import Model
import numpy as np

def make_model(batch_shape):
    ipt = Input(batch_shape=batch_shape)
…
