…
I am pretty sure I am not running out of memory as previously I have trained even bigger models (~20M params) but the above model has just 2M elements. Even the GPU usage barely exceeds 5%. I have GTX 1050ti 4GB. Also, I have successfully run the above model plenty of times before but only since yesterday this issue is coming up.
&lt;denchmark-code&gt;Model: "sequential"
_________________________________________________________________
Layer (type)                 Output Shape              Param #   
=================================================================
embedding (Embedding)        (None, 200, 128)          1920000   
_________________________________________________________________
bidirectional (Bidirectional (None, 200, 128)          98816     
_________________________________________________________________
global_average_pooling1d (Gl (None, 128)               0         
_________________________________________________________________
dropout (Dropout)            (None, 128)               0         
_________________________________________________________________
dense (Dense)                (None, 50)                6450      
_________________________________________________________________
dropout_1 (Dropout)          (None, 50)                0         
_________________________________________________________________
dense_1 (Dense)              (None, 1)                 51        
=================================================================
Total params: 2,025,317
Trainable params: 2,025,317
Non-trainable params: 0
&lt;/denchmark-code&gt;

Below is the exact error.
&lt;denchmark-code&gt;Train on 143613 samples, validate on 15958 samples
Epoch 1/5
Traceback (most recent call last):

  File "C:\Users\admin\Documents\Machine Learning\Projects\Classification\jigsaw-toxic-comment-classification-challenge\toxic_classifier.py", line 122, in &lt;module&gt;
…
