…
    parser.add_argument("--m_path", type=str, default='models/')
    parser.add_argument("--out_dir", type=str, default='exported_models')
    parser.add_argument("--light", action='store_true')
    args = parser.parse_args()
    main(args.m_path, args.out_dir, args.light)
and the tf.sumary() output
&lt;denchmark-code&gt;in_name:input_0, out_name:Generator/activation_1/Tanh
Model: "Generator"
_________________________________________________________________
Layer (type)                 Output Shape              Param #   
=================================================================
FlatConv (FlatConv)          (1, 800, 800, 96)         7298      
_________________________________________________________________
DownShuffleUnitV2 (DownShuff (1, 400, 400, 192)        29384     
_________________________________________________________________
DownShuffleUnitV2 (DownShuff (1, 200, 200, 384)        114056    
_________________________________________________________________
sequential_15 (Sequential)   (1, 200, 200, 384)        603696    
_________________________________________________________________
UpSampleConv (UpSampleConv)  (1, 400, 400, 192)        93222     
_________________________________________________________________
UpSampleConv (UpSampleConv)  (1, 800, 800, 96)         23574     
_________________________________________________________________
sequential_20 (Sequential)   (1, 800, 800, 3)          7203      
_________________________________________________________________
activation (Activation)      (1, 800, 800, 3)          0         
=================================================================
Total params: 878,433
Trainable params: 878,433
Non-trainable params: 0
_________________________________________________________________
&lt;/denchmark-code&gt;

convert command
&lt;denchmark-code&gt;tflite_convert --output_file=model.tflite --saved_model_dir . --input_arrays input_0 --input_shapes=1,800,800,3 --output_arrays Generator/activation_1/Tanh
…
