…
		&lt;denchmark-link:https://github.com/ravikyram&gt;@ravikyram&lt;/denchmark-link&gt;
 Thanks for the fast response!
Definitely, I give the complete code below:
&lt;denchmark-h:h1&gt;Model creation (usual procedure)&lt;/denchmark-h&gt;

Model was created in Python version 3.8.2 and Tensorflow version 2.2.0
&lt;denchmark-h:h1&gt;Model summary:&lt;/denchmark-h&gt;

&lt;denchmark-code&gt;Model: "sequential"
_________________________________________________________________
Layer (type)                 Output Shape              Param #   
=================================================================
nn_input (Flatten)           (None, 64)                0         
_________________________________________________________________
batch_normalization (BatchNo (None, 64)                256       
_________________________________________________________________
dense (Dense)                (None, 64)                4160      
_________________________________________________________________
batch_normalization_1 (Batch (None, 64)                256       
_________________________________________________________________
dense_1 (Dense)              (None, 128)               8320      
_________________________________________________________________
batch_normalization_2 (Batch (None, 128)               512       
_________________________________________________________________
dense_2 (Dense)              (None, 256)               33024     
_________________________________________________________________
batch_normalization_3 (Batch (None, 256)               1024      
_________________________________________________________________
dense_3 (Dense)              (None, 256)               65792     
_________________________________________________________________
batch_normalization_4 (Batch (None, 256)               1024      
_________________________________________________________________
dropout (Dropout)            (None, 256)               0         
_________________________________________________________________
dense_4 (Dense)              (None, 128)               32896     
_________________________________________________________________
batch_normalization_5 (Batch (None, 128)               512       
_________________________________________________________________
dense_5 (Dense)              (None, 256)               33024     
_________________________________________________________________
batch_normalization_6 (Batch (None, 256)               1024      
_________________________________________________________________
dense_6 (Dense)              (None, 512)               131584    
_________________________________________________________________
batch_normalization_7 (Batch (None, 512)               2048      
_________________________________________________________________
dense_7 (Dense)              (None, 512)               262656    
_________________________________________________________________
batch_normalization_8 (Batch (None, 512)               2048      
_________________________________________________________________
dropout_1 (Dropout)          (None, 512)               0         
_________________________________________________________________
nn_output (Dense)            (None, 1)                 513       
=================================================================
Total params: 580,673
Trainable params: 576,321
Non-trainable params: 4,352
_________________________________________________________________
&lt;/denchmark-code&gt;

&lt;denchmark-h:h1&gt;Model save (using callbacks)&lt;/denchmark-h&gt;

Also Python version 3.8.2 and Tensorflow version 2.2.0
&lt;denchmark-code&gt;tf.keras.callbacks.ModelCheckpoint(filepath=checkpoint_filepath, save_weights_only=False,
…
