…
tf_val = tf.data.Dataset.from_tensor_slices((x_val, x_val)).batch(batch_size).prefetch(tf.data.experimental.AUTOTUNE).shuffle(int(10e4))
hist = vae.fit(tf_train,
validation_data=tf_val,
shuffle=True,
verbose=0,
#batch_size=batch_size,
epochs=n_epochs,
callbacks=callbacks)
plot_loss(hist)
 
Model: "functional_39"
&lt;denchmark-h:hr&gt;&lt;/denchmark-h&gt;

&lt;denchmark-h:h1&gt;Layer (type)                    Output Shape         Param #     Connected to&lt;/denchmark-h&gt;

input_21 (InputLayer)           [(None, 30)]         0
&lt;denchmark-h:hr&gt;&lt;/denchmark-h&gt;

batch_normalization_40 (BatchNo (None, 30)           120         input_21[0][0]
&lt;denchmark-h:hr&gt;&lt;/denchmark-h&gt;

encoder_hidden (Dense)          (None, 256)          7936        batch_normalization_40[0][0]
&lt;denchmark-h:hr&gt;&lt;/denchmark-h&gt;

batch_normalization_41 (BatchNo (None, 256)          1024        encoder_hidden[0][0]
&lt;denchmark-h:hr&gt;&lt;/denchmark-h&gt;

z_mean (Dense)                  (None, 3)            771         batch_normalization_41[0][0]
&lt;denchmark-h:hr&gt;&lt;/denchmark-h&gt;

z_log_var (Dense)               (None, 3)            771         batch_normalization_41[0][0]
&lt;denchmark-h:hr&gt;&lt;/denchmark-h&gt;

z_sampled (Lambda)              (None, 3)            0           z_mean[0][0]
z_log_var[0][0]
&lt;denchmark-h:hr&gt;&lt;/denchmark-h&gt;

decoder_hidden (Dense)          (None, 256)          1024        z_sampled[0][0]
&lt;denchmark-h:hr&gt;&lt;/denchmark-h&gt;

&lt;denchmark-h:h1&gt;decoded_mean (Dense)            (None, 30)           7710        decoder_hidden[0][0]&lt;/denchmark-h&gt;

Total params: 19,356
Trainable params: 18,784
Non-trainable params: 572
&lt;denchmark-h:hr&gt;&lt;/denchmark-h&gt;

&lt;denchmark-h:h2&gt;/usr/local/lib/python3.6/dist-packages/tensorflow/python/data/ops/dataset_ops.py:3350: UserWarning: Even though the tf.config.experimental_run_functions_eagerly option is set, this option does not apply to tf.data functions. tf.data functions are still traced and executed as graphs.
…
