…
2020-09-26 08:52:10.680539: I tensorflow/compiler/xla/service/service.cc:168] XLA service 0x7ffc4db8dd80 initialized for platform Host (this does not guarantee that XLA will be used). Devices:
2020-09-26 08:52:10.680577: I tensorflow/compiler/xla/service/service.cc:176]   StreamExecutor device (0): Host, Default Version
2020-09-26 08:52:10.680685: I tensorflow/core/common_runtime/process_util.cc:146] Creating new thread pool with default inter op setting: 2. Tune using inter_op_parallelism_threads for best performance.
Model: "encoder"

Layer (type)                    Output Shape         Param #    Connected to                     
input_1 (InputLayer)            [(None, 28, 28, 1)]  0                                            
conv2d (Conv2D)                 (None, 14, 14, 32)   320         input_1[0][0]                    
conv2d_1 (Conv2D)               (None, 7, 7, 64)     18496       conv2d[0][0]                     
flatten (Flatten)               (None, 3136)         0           conv2d_1[0][0]                   
dense (Dense)                   (None, 16)           50192       flatten[0][0]                    
z_mean (Dense)                  (None, 2)            34          dense[0][0]                      
z_log_var (Dense)               (None, 2)            34          dense[0][0]                      
sampling (Sampling)             (None, 2)            0           z_mean[0][0]                     
                                                                 z_log_var[0][0]                  

Total params: 69,076
Trainable params: 69,076
Non-trainable params: 0

Model: "decoder"
Layer (type)                 Output Shape              Param #   
input_2 (InputLayer)         [(None, 2)]               0         
dense_1 (Dense)              (None, 3136)              9408      
reshape (Reshape)            (None, 7, 7, 64)          0         
conv2d_transpose (Conv2DTran (None, 14, 14, 64)        36928     
conv2d_transpose_1 (Conv2DTr (None, 28, 28, 32)        18464     
conv2d_transpose_2 (Conv2DTr (None, 28, 28, 1)         289       

Total params: 65,089
Trainable params: 65,089
Non-trainable params: 0

Epoch 1/30
dnnl_verbose,info,oneDNN v1.4.0 (commit N/A)
dnnl_verbose,info,cpu,runtime:OpenMP
dnnl_verbose,info,cpu,isa:Intel AVX2
dnnl_verbose,info,gpu,runtime:none
dnnl_verbose,exec,cpu,reorder,jit:uni,undef,src_f32::blocked:cdba:f0 dst_f32::blocked:Acdb8a:f0,,,32x1x3x3,0.00488281
dnnl_verbose,exec,cpu,convolution,jit:avx2,forward_training,src_f32::blocked:abcd:f0 wei_f32::blocked:Acdb8a:f0 bia_f32::blocked:a:f0 dst_f32::blocked:aBcd8b:f0,post_ops:'eltwise_relu;';,alg:convolution_direct,mb128_ic1oc32_ih28oh14kh3sh2dh0ph0_iw28ow14kw3sw2dw0pw0,1.90991
…
