…
    model = keras.models.Model(inputs= input_x, outputs = final_predictions)
    model.compile(optimizer='adam', loss='binary_crossentropy', metrics= METRICS
    model.summary()
    return model
&lt;/denchmark-code&gt;

and here is the summary:-
&lt;denchmark-code&gt;Model: "model_4"
_________________________________________________________________
Layer (type)                 Output Shape              Param #   
=================================================================
feature (InputLayer)         [(None, 128, 128, 3)]     0         
_________________________________________________________________
mobilenet_1.00_128 (Model)   (None, 4, 4, 1024)        3228864   
_________________________________________________________________
global_average_pooling2d_5 ( (None, 1024)              0         
_________________________________________________________________
dense_16 (Dense)             (None, 2048)              2099200   
_________________________________________________________________
batch_normalization_10 (Batc (None, 2048)              8192      
_________________________________________________________________
dropout_10 (Dropout)         (None, 2048)              0         
_________________________________________________________________
dense_17 (Dense)             (None, 512)               1049088   
_________________________________________________________________
batch_normalization_11 (Batc (None, 512)               2048      
_________________________________________________________________
dropout_11 (Dropout)         (None, 512)               0         
_________________________________________________________________
dense_18 (Dense)             (None, 13)                6669      
_________________________________________________________________
embedding_1 (Embedding)      (None, 13, 100)           1300      
_________________________________________________________________
flatten (Flatten)            (None, 1300)              0         
_________________________________________________________________
dense_19 (Dense)             (None, 13)                16913     
=================================================================
Total params: 6,412,274
Trainable params: 6,383,966
Non-trainable params: 28,308
_________________________________________________________________
&lt;/denchmark-code&gt;

Adding embedd_layer  and flatten layer after the layer prediction resulted in this error to pop-up,
when I run the model fit I'll get this warning  &amp; error message.
…
