…
   if _add_op is None:
       raise RuntimeError(
           "PyTorch convert function for op {} not implemented".format(node.kind)



@@ -955,7 +956,8 @@ def lstm(context, node):
)
Reproducible:
Yes
Testcase:
Attached
&lt;denchmark-link:https://github.com/apple/coremltools/files/4892950/testTransformerEncoder.txt&gt;testTransformerEncoder.txt&lt;/denchmark-link&gt;

Setup:
macOS Catalina latest
Python 3.7.6
Log:
Torch version : 1.5.1
CoreML tools version : 4.0b1
TestModel(
(transformer_encoder): TransformerEncoder(
(layers): ModuleList(
(0): TransformerEncoderLayer(
(self_attn): MultiheadAttention(
(out_proj): Linear(in_features=28, out_features=28, bias=True)
)
(linear1): Linear(in_features=28, out_features=16, bias=True)
(dropout): Dropout(p=0.1, inplace=False)
(linear2): Linear(in_features=16, out_features=28, bias=True)
(norm1): LayerNorm((28,), eps=1e-05, elementwise_affine=True)
(norm2): LayerNorm((28,), eps=1e-05, elementwise_affine=True)
(dropout1): Dropout(p=0.1, inplace=False)
(dropout2): Dropout(p=0.1, inplace=False)
)
(1): TransformerEncoderLayer(
(self_attn): MultiheadAttention(
(out_proj): Linear(in_features=28, out_features=28, bias=True)
)
(linear1): Linear(in_features=28, out_features=16, bias=True)
(dropout): Dropout(p=0.1, inplace=False)
(linear2): Linear(in_features=16, out_features=28, bias=True)
(norm1): LayerNorm((28,), eps=1e-05, elementwise_affine=True)
(norm2): LayerNorm((28,), eps=1e-05, elementwise_affine=True)
(dropout1): Dropout(p=0.1, inplace=False)
(dropout2): Dropout(p=0.1, inplace=False)
)
)
)
)
Library/Python/3.7/lib/python/site-packages/torch/jit/init.py:1037: TracerWarning: Output nr 1. of the traced function does not match the corresponding output of the Python function. Detailed error:
Not within tolerance rtol=1e-05 atol=1e-05 at input[29, 0, 14] (1.3225914239883423 vs. -0.8373285531997681) and 838 other locations (99.88%)
…
