…
		<comment id='3' author='alexionby' date='2018-03-28T06:16:56Z'>
		&lt;denchmark-link:https://github.com/KeDengMS&gt;@KeDengMS&lt;/denchmark-link&gt;
 , yes it's in CNTK 2.5
		</comment>
		<comment id='4' author='alexionby' date='2018-04-11T05:21:33Z'>
		&lt;denchmark-link:https://github.com/alexionby&gt;@alexionby&lt;/denchmark-link&gt;
 Can you share the exact Pytorch model that you are trying to load in CNTK.
		</comment>
		<comment id='5' author='alexionby' date='2018-04-12T08:03:56Z'>
		The final model:
&lt;denchmark-code&gt;UNet(
  (down_path): ModuleList(
    (0): UNetConvBlock(
      (block): Sequential(
        (0): Conv2d(1, 32, kernel_size=(3, 3), stride=(1, 1))
        (1): ReLU()
        (2): Conv2d(32, 32, kernel_size=(3, 3), stride=(1, 1))
        (3): ReLU()
      )
    )
    (1): UNetConvBlock(
      (block): Sequential(
        (0): Conv2d(32, 64, kernel_size=(3, 3), stride=(1, 1))
        (1): ReLU()
        (2): Conv2d(64, 64, kernel_size=(3, 3), stride=(1, 1))
        (3): ReLU()
      )
    )
    (2): UNetConvBlock(
      (block): Sequential(
        (0): Conv2d(64, 128, kernel_size=(3, 3), stride=(1, 1))
        (1): ReLU()
        (2): Conv2d(128, 128, kernel_size=(3, 3), stride=(1, 1))
        (3): ReLU()
      )
    )
    (3): UNetConvBlock(
      (block): Sequential(
        (0): Conv2d(128, 256, kernel_size=(3, 3), stride=(1, 1))
        (1): ReLU()
        (2): Conv2d(256, 256, kernel_size=(3, 3), stride=(1, 1))
        (3): ReLU()
      )
    )
    (4): UNetConvBlock(
      (block): Sequential(
        (0): Conv2d(256, 512, kernel_size=(3, 3), stride=(1, 1))
        (1): ReLU()
        (2): Conv2d(512, 512, kernel_size=(3, 3), stride=(1, 1))
        (3): ReLU()
      )
    )
  )
  (up_path): ModuleList(
    (0): UNetUpBlock(
      (up): ConvTranspose2d(512, 256, kernel_size=(2, 2), stride=(2, 2))
      (conv_block): UNetConvBlock(
        (block): Sequential(
          (0): Conv2d(512, 256, kernel_size=(3, 3), stride=(1, 1))
          (1): ReLU()
          (2): Conv2d(256, 256, kernel_size=(3, 3), stride=(1, 1))
          (3): ReLU()
        )
      )
    )
    (1): UNetUpBlock(
      (up): ConvTranspose2d(256, 128, kernel_size=(2, 2), stride=(2, 2))
      (conv_block): UNetConvBlock(
        (block): Sequential(
          (0): Conv2d(256, 128, kernel_size=(3, 3), stride=(1, 1))
          (1): ReLU()
          (2): Conv2d(128, 128, kernel_size=(3, 3), stride=(1, 1))
          (3): ReLU()
        )
      )
    )
    (2): UNetUpBlock(
      (up): ConvTranspose2d(128, 64, kernel_size=(2, 2), stride=(2, 2))
      (conv_block): UNetConvBlock(
        (block): Sequential(
          (0): Conv2d(128, 64, kernel_size=(3, 3), stride=(1, 1))
          (1): ReLU()
          (2): Conv2d(64, 64, kernel_size=(3, 3), stride=(1, 1))
          (3): ReLU()
        )
      )
 
   )
    (3): UNetUpBlock(
      (up): ConvTranspose2d(64, 32, kernel_size=(2, 2), stride=(2, 2))
      (conv_block): UNetConvBlock(
        (block): Sequential(
          (0): Conv2d(64, 32, kernel_size=(3, 3), stride=(1, 1))
          (1): ReLU()
          (2): Conv2d(32, 32, kernel_size=(3, 3), stride=(1, 1))
          (3): ReLU()
        )
      )
    )
  )
  (last): Conv2d(32, 1, kernel_size=(1, 1), stride=(1, 1))
)
&lt;/denchmark-code&gt;

And code for this model:
&lt;denchmark-code&gt;class UNet(nn.Module):
    def __init__(self, in_channels=3, n_classes=1, depth=5, wf=5, padding=False,
                 batch_norm=True, up_mode='upconv'):
        """
        Implementation of
        U-Net: Convolutional Networks for Biomedical Image Segmentation
        (Ronneberger et al., 2015)
…
