<bug id='6213' author='xiptos' open_date='2018-08-20T09:39:02Z' closed_time='2018-08-20T16:07:45Z'>
	<summary>Attempting to permute dimensions other thanspatial dimensions (height and width) in Permute layer</summary>
	<description>
When importing a Keras model, I get the following exception:
[main] INFO org.deeplearning4j.nn.modelimport.keras.Hdf5Archive - Unexpected end-of-input: expected close marker for ARRAY (from [Source: {"class_name": "Model", "config": {"layers": [{"class_name": "InputLayer", "config": {"dtype": "float32", "batch_input_shape": [null, 48, 48, 3], "name": "input_1", "sparse": false}, "inbound_nodes": [], "name": "input_1"}, {"class_name": "Conv2D", "config": {"kernel_constraint": null, "kernel_initializer": {"class_name": "VarianceScaling", "config": {"distribution": "uniform", "scale": 1.0, "seed": null, "mode": "fan_avg"}}, "name": "conv1", "bias_regularizer": null, "bias_constraint": null, "activation": "linear", "trainable": true, "data_format": "channels_last", "padding": "valid", "strides": [1, 1], "dilation_rate": [1, 1], "kernel_regularizer": null, "filters": 32, "bias_initializer": {"class_name": "Zeros", "config": {}}, "use_bias": true, "activity_regularizer": null, "kernel_size": [3, 3]}, "inbound_nodes": [[["input_1", 0, 0, {}]]], "name": "conv1"}, {"class_name": "PReLU", "config": {"name": "prelu1", "alpha_constraint": null, "trainable": true, "alpha_regularizer": null, "alpha_initializer": {"class_name": "Zeros", "config": {}}, "shared_axes": [1, 2]}, "inbound_nodes": [[["conv1", 0, 0, {}]]], "name": "prelu1"}, {"class_name": "MaxPooling2D", "config": {"name": "max_pooling2d_1", "trainable": true, "data_format": "channels_last", "pool_size": [3, 3], "padding": "same", "strides": [2, 2]}, "inbound_nodes": [[["prelu1", 0, 0, {}]]], "name": "max_pooling2d_1"}, {"class_name": "Conv2D", "config": {"kernel_constraint": null, "kernel_initializer": {"class_name": "VarianceScaling", "config": {"distribution": "uniform", "scale": 1.0, "seed": null, "mode": "fan_avg"}}, "name": "conv2", "bias_regularizer": null, "bias_constraint": null, "activation": "linear", "trainable": true, "data_format": "channels_last", "padding": "valid", "strides": [1, 1], "dilation_rate": [1, 1], "kernel_regularizer": null, "filters": 64, "bias_initializer": {"class_name": "Zeros", "config": {}}, "use_bias": true, "activity_regularizer": null, "kernel_size": [3, 3]}, "inbound_nodes": [[; line: 1, column: 1999])
at [Source: {"class_name": "Model", "config": {"layers": [{"class_name": "InputLayer", "config": {"dtype": "float32", "batch_input_shape": [null, 48, 48, 3], "name": "input_1", "sparse": false}, "inbound_nodes": [], "name": "input_1"}, {"class_name": "Conv2D", "config": {"kernel_constraint": null, "kernel_initializer": {"class_name": "VarianceScaling", "config": {"distribution": "uniform", "scale": 1.0, "seed": null, "mode": "fan_avg"}}, "name": "conv1", "bias_regularizer": null, "bias_constraint": null, "activation": "linear", "trainable": true, "data_format": "channels_last", "padding": "valid", "strides": [1, 1], "dilation_rate": [1, 1], "kernel_regularizer": null, "filters": 32, "bias_initializer": {"class_name": "Zeros", "config": {}}, "use_bias": true, "activity_regularizer": null, "kernel_size": [3, 3]}, "inbound_nodes": [[["input_1", 0, 0, {}]]], "name": "conv1"}, {"class_name": "PReLU", "config": {"name": "prelu1", "alpha_constraint": null, "trainable": true, "alpha_regularizer": null, "alpha_initializer": {"class_name": "Zeros", "config": {}}, "shared_axes": [1, 2]}, "inbound_nodes": [[["conv1", 0, 0, {}]]], "name": "prelu1"}, {"class_name": "MaxPooling2D", "config": {"name": "max_pooling2d_1", "trainable": true, "data_format": "channels_last", "pool_size": [3, 3], "padding": "same", "strides": [2, 2]}, "inbound_nodes": [[["prelu1", 0, 0, {}]]], "name": "max_pooling2d_1"}, {"class_name": "Conv2D", "config": {"kernel_constraint": null, "kernel_initializer": {"class_name": "VarianceScaling", "config": {"distribution": "uniform", "scale": 1.0, "seed": null, "mode": "fan_avg"}}, "name": "conv2", "bias_regularizer": null, "bias_constraint": null, "activation": "linear", "trainable": true, "data_format": "channels_last", "padding": "valid", "strides": [1, 1], "dilation_rate": [1, 1], "kernel_regularizer": null, "filters": 64, "bias_initializer": {"class_name": "Zeros", "config": {}}, "use_bias": true, "activity_regularizer": null, "kernel_size": [3, 3]}, "inbound_nodes": [[; line: 1, column: 4001]
[main] INFO org.deeplearning4j.nn.modelimport.keras.Hdf5Archive - Unexpected end-of-input within/between OBJECT entries
at [Source: {"class_name": "Model", "config": {"layers": [{"class_name": "InputLayer", "config": {"dtype": "float32", "batch_input_shape": [null, 48, 48, 3], "name": "input_1", "sparse": false}, "inbound_nodes": [], "name": "input_1"}, {"class_name": "Conv2D", "config": {"kernel_constraint": null, "kernel_initializer": {"class_name": "VarianceScaling", "config": {"distribution": "uniform", "scale": 1.0, "seed": null, "mode": "fan_avg"}}, "name": "conv1", "bias_regularizer": null, "bias_constraint": null, "activation": "linear", "trainable": true, "data_format": "channels_last", "padding": "valid", "strides": [1, 1], "dilation_rate": [1, 1], "kernel_regularizer": null, "filters": 32, "bias_initializer": {"class_name": "Zeros", "config": {}}, "use_bias": true, "activity_regularizer": null, "kernel_size": [3, 3]}, "inbound_nodes": [[["input_1", 0, 0, {}]]], "name": "conv1"}, {"class_name": "PReLU", "config": {"name": "prelu1", "alpha_constraint": null, "trainable": true, "alpha_regularizer": null, "alpha_initializer": {"class_name": "Zeros", "config": {}}, "shared_axes": [1, 2]}, "inbound_nodes": [[["conv1", 0, 0, {}]]], "name": "prelu1"}, {"class_name": "MaxPooling2D", "config": {"name": "max_pooling2d_1", "trainable": true, "data_format": "channels_last", "pool_size": [3, 3], "padding": "same", "strides": [2, 2]}, "inbound_nodes": [[["prelu1", 0, 0, {}]]], "name": "max_pooling2d_1"}, {"class_name": "Conv2D", "config": {"kernel_constraint": null, "kernel_initializer": {"class_name": "VarianceScaling", "config": {"distribution": "uniform", "scale": 1.0, "seed": null, "mode": "fan_avg"}}, "name": "conv2", "bias_regularizer": null, "bias_constraint": null, "activation": "linear", "trainable": true, "data_format": "channels_last", "padding": "valid", "strides": [1, 1], "dilation_rate": [1, 1], "kernel_regularizer": null, "filters": 64, "bias_initializer": {"class_name": "Zeros", "config": {}}, "use_bias": true, "activity_regularizer": null, "kernel_size": [3, 3]}, "inbound_nodes": [[["max_pooling2d_1", 0, 0, {}]]], "name": "conv2"}, {"class_name": "PReLU", "config": {"name": "prelu2", "alpha_constraint": null, "trainable": true, "alpha_regularizer": null, "alpha_initializer": {"class_name": "Zeros", "config": {}}, "shared_axes": [1, 2]}, "inbound_nodes": [[["conv2", 0, 0, {}]]], "name": "prelu2"}, {"class_name": "MaxPooling2D", "config": {"name": "max_pooling2d_2", "trainable": true, "data_format": "channels_last", "pool_size": [3, 3], "padding": "valid", "strides": [2, 2]}, "inbound_nodes": [[["prelu2", 0, 0, {}]]], "name": "max_pooling2d_2"}, {"class_name": "Conv2D", "config": {"kernel_constraint": null, "kernel_initializer": {"class_name": "VarianceScaling", "config": {"distribution": "uniform", "scale": 1.0, "seed": null, "mode": "fan_avg"}}, "name": "conv3", "bias_regularizer": null, "bias_constraint": null, "activation": "linear", "trainable": true, "data_format": "channels_last", "padding": "valid", "strides": [1, 1], "dilation_rate": [1, 1], "kernel_regularizer": null, "filters": 64, "bias_initializer": {"class_name": "Zeros", "config": {}}, "use_bias": true, "activity_regularizer": null, "kernel_size": [3, 3]}, "inbound_nodes": [[["max_pooling2d_2", 0, 0, {}]]], "name": "conv3"}, {"class_name": "PReLU", "config": {"name": "prelu3", "alpha_constraint": null, "trainable": true, "alpha_regularizer": null, "alpha_initializer": {"class_name": "Zeros", "config": {}}, "shared_axes": [1, 2]}, "inbound_nodes": [[["conv3", 0, 0, {}]]], "name": "prelu3"}, {"class_name": "MaxPooling2D", "config": {"name": "max_pooling2d_3", "trainable": true, "data_format": "channels_last", "pool_size": [2, 2], "padding": "valid", "strides": [2, 2]}, "inbound_nodes": [[["prelu3", 0, 0, {}]]], "name": "max_pooling2d_3"}, {"class_name": "Conv2D", "config": {"kernel_constraint": null, "kernel_initializer": {"class_name": "VarianceScaling", "config": {"distribution": "uniform", "scale": 1.0, "seed": null, "mode": "fan_avg"}}, "name": "conv4", "bias_regularizer": null,; line: 1, column: 8001]
[main] INFO org.deeplearning4j.nn.modelimport.keras.Hdf5Archive - Unexpected end-of-input: was expecting closing '"' for name
at [Source: {"class_name": "Model", "config": {"layers": [{"class_name": "InputLayer", "config": {"dtype": "float32", "batch_input_shape": [null, 48, 48, 3], "name": "input_1", "sparse": false}, "inbound_nodes": [], "name": "input_1"}, {"class_name": "Conv2D", "config": {"kernel_constraint": null, "kernel_initializer": {"class_name": "VarianceScaling", "config": {"distribution": "uniform", "scale": 1.0, "seed": null, "mode": "fan_avg"}}, "name": "conv1", "bias_regularizer": null, "bias_constraint": null, "activation": "linear", "trainable": true, "data_format": "channels_last", "padding": "valid", "strides": [1, 1], "dilation_rate": [1, 1], "kernel_regularizer": null, "filters": 32, "bias_initializer": {"class_name": "Zeros", "config": {}}, "use_bias": true, "activity_regularizer": null, "kernel_size": [3, 3]}, "inbound_nodes": [[["input_1", 0, 0, {}]]], "name": "conv1"}, {"class_name": "PReLU", "config": {"name": "prelu1", "alpha_constraint": null, "trainable": true, "alpha_regularizer": null, "alpha_initializer": {"class_name": "Zeros", "config": {}}, "shared_axes": [1, 2]}, "inbound_nodes": [[["conv1", 0, 0, {}]]], "name": "prelu1"}, {"class_name": "MaxPooling2D", "config": {"name": "max_pooling2d_1", "trainable": true, "data_format": "channels_last", "pool_size": [3, 3], "padding": "same", "strides": [2, 2]}, "inbound_nodes": [[["prelu1", 0, 0, {}]]], "name": "max_pooling2d_1"}, {"class_name": "Conv2D", "config": {"kernel_constraint": null, "kernel_initializer": {"class_name": "VarianceScaling", "config": {"distribution": "uniform", "scale": 1.0, "seed": null, "mode": "fan_avg"}}, "name": "conv2", "bias_regularizer": null, "bias_constraint": null, "activation": "linear", "trainable": true, "data_format": "channels_last", "padding": "valid", "strides": [1, 1], "dilation_rate": [1, 1], "kernel_regularizer": null, "filters": 64, "bias_initializer": {"class_name": "Zeros", "config": {}}, "use_bias": true, "activity_regularizer": null, "kernel_size": [3, 3]}, "inbound_nodes": [[["max_pooling2d_1", 0, 0, {}]]], "name": "conv2"}, {"class_name": "PReLU", "config": {"name": "prelu2", "alpha_constraint": null, "trainable": true, "alpha_regularizer": null, "alpha_initializer": {"class_name": "Zeros", "config": {}}, "shared_axes": [1, 2]}, "inbound_nodes": [[["conv2", 0, 0, {}]]], "name": "prelu2"}, {"class_name": "MaxPooling2D", "config": {"name": "max_pooling2d_2", "trainable": true, "data_format": "channels_last", "pool_size": [3, 3], "padding": "valid", "strides": [2, 2]}, "inbound_nodes": [[["prelu2", 0, 0, {}]]], "name": "max_pooling2d_2"}, {"class_name": "Conv2D", "config": {"kernel_constraint": null, "kernel_initializer": {"class_name": "VarianceScaling", "config": {"distribution": "uniform", "scale": 1.0, "seed": null, "mode": "fan_avg"}}, "name": "conv3", "bias_regularizer": null, "bias_constraint": null, "activation": "linear", "trainable": true, "data_format": "channels_last", "padding": "valid", "strides": [1, 1], "dilation_rate": [1, 1], "kernel_regularizer": null, "filters": 64, "bias_initializer": {"class_name": "Zeros", "config": {}}, "use_bias": true, "activity_regularizer": null, "kernel_size": [3, 3]}, "inbound_nodes": [[["max_pooling2d_2", 0, 0, {}]]], "name": "conv3"}, {"class_name": "PReLU", "config": {"name": "prelu3", "alpha_constraint": null, "trainable": true, "alpha_regularizer": null, "alpha_initializer": {"class_name": "Zeros", "config": {}}, "shared_axes": [1, 2]}, "inbound_nodes": [[["conv3", 0, 0, {}]]], "name": "prelu3"}, {"class_name": "MaxPooling2D", "config": {"name": "max_pooling2d_3", "trainable": true, "data_format": "channels_last", "pool_size": [2, 2], "padding": "valid", "strides": [2, 2]}, "inbound_nodes": [[["prelu3", 0, 0, {}]]], "name": "max_pooling2d_3"}, {"class_name": "Conv2D", "config": {"kernel_constraint": null, "kernel_initializer": {"class_name": "VarianceScaling", "config": {"distribution": "uniform", "scale": 1.0, "seed": null, "mode": "fan_avg"}}, "name": "conv4", "bias_regularizer": null, "bias_constraint": null, "activation": "linear", "trainable": true, "data_format": "channels_last", "padding": "valid", "strides": [1, 1], "dilation_rate": [1, 1], "kernel_regularizer": null, "filters": 128, "bias_initializer": {"class_name": "Zeros", "config": {}}, "use_bias": true, "activity_regularizer": null, "kernel_size": [2, 2]}, "inbound_nodes": [[["max_pooling2d_3", 0, 0, {}]]], "name": "conv4"}, {"class_name": "PReLU", "config": {"name": "prelu4", "alpha_constraint": null, "trainable": true, "alpha_regularizer": null, "alpha_initializer": {"class_name": "Zeros", "config": {}}, "shared_axes": [1, 2]}, "inbound_nodes": [[["conv4", 0, 0, {}]]], "name": "prelu4"}, {"class_name": "Permute", "config": {"dims": [3, 2, 1], "trainable": true, "name": "permute_1"}, "inbound_nodes": [[["prelu4", 0, 0, {}]]], "name": "permute_1"}, {"class_name": "Flatten", "config": {"trainable": true, "name": "flatten_1", "data_format": "channels_last"}, "inbound_nodes": [[["permute_1", 0, 0, {}]]], "name": "flatten_1"}, {"class_name": "Dense", "config": {"kernel_initializer": {"class_name": "VarianceScaling", "config": {"distribution": "uniform", "scale": 1.0, "seed": null, "mode": "fan_avg"}}, "name": "conv5", "kernel_constraint": null, "bias_regularizer": null, "bias_constraint": null, "activation": "linear", "trainable": true, "kernel_regularizer": null, "bias_initializer": {"class_name": "Zeros", "config": {}}, "units": 256, "use_bias": true, "activity_regularizer": null}, "inbound_nodes": [[["flatten_1", 0, 0, {}]]], "name": "conv5"}, {"class_name": "PReLU", "config": {"name": "prelu5", "alpha_constraint": null, "trainable": true, "alpha_regularizer": null, "alpha_initializer": {"class_name": "Zeros", "config": {}}, "shared_axes": null}, "inbound_nodes": [[["conv5", 0, 0, {}]]], "name": "prelu5"}, {"class_name": "Dense", "config": {"kernel_initializer": {"class_name": "VarianceScaling", "config": {"distribution": "uniform", "scale": 1.0, "seed": null, "mode": "fan_avg"}}, "nam; line: 1, column: 12001]
[main] INFO org.nd4j.linalg.factory.Nd4jBackend - Loaded [CpuBackend] backend
[main] INFO org.nd4j.nativeblas.NativeOpsHolder - Number of threads used for NativeOps: 2
[main] INFO org.nd4j.nativeblas.Nd4jBlas - Number of threads used for BLAS: 2
[main] INFO org.nd4j.linalg.api.ops.executioner.DefaultOpExecutioner - Backend used: [CPU]; OS: [Mac OS X]
[main] INFO org.nd4j.linalg.api.ops.executioner.DefaultOpExecutioner - Cores: [4]; Memory: [1.8GB];
[main] INFO org.nd4j.linalg.api.ops.executioner.DefaultOpExecutioner - Blas vendor: [MKL]
Exception in thread "main" org.deeplearning4j.nn.modelimport.keras.exceptions.InvalidKerasConfigurationException: Attempting to permute dimensions other thanspatial dimensions (height and width) in Permute layer, got [3, 2, 1]. For more information, see http://deeplearning4j.org/model-import-keras.
at org.deeplearning4j.nn.modelimport.keras.layers.core.KerasPermute.getInputPreprocessor(KerasPermute.java:115)
at org.deeplearning4j.nn.modelimport.keras.layers.core.KerasPermute.getOutputType(KerasPermute.java:143)
at org.deeplearning4j.nn.modelimport.keras.KerasModel.inferOutputTypes(KerasModel.java:306)
at org.deeplearning4j.nn.modelimport.keras.KerasModel.(KerasModel.java:181)
at org.deeplearning4j.nn.modelimport.keras.KerasModel.(KerasModel.java:98)
at org.deeplearning4j.nn.modelimport.keras.utils.KerasModelBuilder.buildModel(KerasModelBuilder.java:305)
at org.deeplearning4j.nn.modelimport.keras.KerasModelImport.importKerasModelAndWeights(KerasModelImport.java:127)
at pt.ipb.face.Mtcnn2Dl4j.main(Mtcnn2Dl4j.java:15)
The source code in in attach, as well as the keras model file. The operating system is macOS High Sierra 10.13.6, with
java version "1.8.0_151"
Java(TM) SE Runtime Environment (build 1.8.0_151-b12)
Java HotSpot(TM) 64-Bit Server VM (build 25.151-b12, mixed mode)
Is the problem related to the keras model or some problem with keras_import?
&lt;denchmark-link:https://github.com/deeplearning4j/deeplearning4j/files/2301895/48net_complete.h5.zip&gt;48net_complete.h5.zip&lt;/denchmark-link&gt;

&lt;denchmark-link:https://github.com/deeplearning4j/deeplearning4j/files/2301896/Mtcnn2Dl4j.java.zip&gt;Mtcnn2Dl4j.java.zip&lt;/denchmark-link&gt;

	</description>
	<comments>
		<comment id='1' author='xiptos' date='2018-08-20T10:18:29Z'>
		&lt;denchmark-link:https://github.com/xiptos&gt;@xiptos&lt;/denchmark-link&gt;
 can you explain what your model is supposed to do? So you want to flip the input completely from (1,2,3) to (3,2,1)? We have some safeguards in DL4J to prevent users from doing stuff that is allowed in keras.
		</comment>
		<comment id='2' author='xiptos' date='2018-08-20T10:43:37Z'>
		I'm trying to implement (by importing) the MTCNN approach to detect human faces, from the python project &lt;denchmark-link:https://github.com/xiangrufan/keras-mtcnn/blob/master/MTCNN.py&gt;https://github.com/xiangrufan/keras-mtcnn/blob/master/MTCNN.py&lt;/denchmark-link&gt;
 and based on the paper &lt;denchmark-link:https://kpzhang93.github.io/papers/spl.pdf&gt;https://kpzhang93.github.io/papers/spl.pdf&lt;/denchmark-link&gt;

There are two more models, and I'm also having some exceptions importing them.
		</comment>
		<comment id='3' author='xiptos' date='2018-08-20T11:54:21Z'>
		i discover the same problem on conv2D model imported from keras but my model charge and predict bad.
		</comment>
		<comment id='4' author='xiptos' date='2018-08-20T12:27:23Z'>
		&lt;denchmark-link:https://github.com/xiptos&gt;@xiptos&lt;/denchmark-link&gt;
 thanks for the reference. I'll check it out. in principle there's nothing preventing us from relaxing the restrictions, I just want to understand it better first.
&lt;denchmark-link:https://github.com/Arkariian&gt;@Arkariian&lt;/denchmark-link&gt;
 please open another issue for your stuff, and include all relevant data (your model, dl4j version, full(!) stack trace). doesn't help to throw this into another, only slightly similar issue. :)
		</comment>
		<comment id='5' author='xiptos' date='2018-08-20T14:38:44Z'>
		&lt;denchmark-link:https://github.com/xiptos&gt;@xiptos&lt;/denchmark-link&gt;
 maybe you can help me out here. what's the supposed effect of permuting right before a flatten layer?
		</comment>
		<comment id='6' author='xiptos' date='2018-08-20T15:11:58Z'>
		I may be wrong, but I believe it has something to do with the optimisation of learning of symmetric or symmetry invariant situations.
		</comment>
		<comment id='7' author='xiptos' date='2018-09-21T09:21:21Z'>
		This thread has been automatically locked since there has not been any recent activity after it was closed. Please open a new issue for related bugs.
		</comment>
	</comments>
</bug>