…
When I put np.unicode this works to me. But I believe that is important to use the original type of numpy, or perhaps, you can put this transformation within the preprocess. This is only an idea/suggestion.
Again, thank you for your help!
Bellow, I put the de model.summary()
&lt;denchmark-h:hr&gt;&lt;/denchmark-h&gt;

model.summary()
Model: "model"
&lt;denchmark-h:hr&gt;&lt;/denchmark-h&gt;

&lt;denchmark-h:h1&gt;Layer (type)                 Output Shape              Param #&lt;/denchmark-h&gt;

input_1 (InputLayer)         [(None, 9)]               0
&lt;denchmark-h:hr&gt;&lt;/denchmark-h&gt;

multi_column_categorical_enc (None, 9)                 0
&lt;denchmark-h:hr&gt;&lt;/denchmark-h&gt;

dense (Dense)                (None, 64)                640
&lt;denchmark-h:hr&gt;&lt;/denchmark-h&gt;

batch_normalization (BatchNo (None, 64)                256
&lt;denchmark-h:hr&gt;&lt;/denchmark-h&gt;

re_lu (ReLU)                 (None, 64)                0
&lt;denchmark-h:hr&gt;&lt;/denchmark-h&gt;

dropout (Dropout)            (None, 64)                0
&lt;denchmark-h:hr&gt;&lt;/denchmark-h&gt;

dense_1 (Dense)              (None, 16)                1040
&lt;denchmark-h:hr&gt;&lt;/denchmark-h&gt;

batch_normalization_1 (Batch (None, 16)                64
&lt;denchmark-h:hr&gt;&lt;/denchmark-h&gt;

re_lu_1 (ReLU)               (None, 16)                0
&lt;denchmark-h:hr&gt;&lt;/denchmark-h&gt;

dropout_1 (Dropout)          (None, 16)                0
&lt;denchmark-h:hr&gt;&lt;/denchmark-h&gt;

dense_2 (Dense)              (None, 32)                544
&lt;denchmark-h:hr&gt;&lt;/denchmark-h&gt;

batch_normalization_2 (Batch (None, 32)                128
&lt;denchmark-h:hr&gt;&lt;/denchmark-h&gt;

re_lu_2 (ReLU)               (None, 32)                0
&lt;denchmark-h:hr&gt;&lt;/denchmark-h&gt;

dropout_2 (Dropout)          (None, 32)                0
&lt;denchmark-h:hr&gt;&lt;/denchmark-h&gt;

&lt;denchmark-h:h1&gt;regression_head_1 (Dense)    (None, 1)                 33&lt;/denchmark-h&gt;

Total params: 2,705
Trainable params: 2,481
Non-trainable params: 224
&lt;denchmark-h:hr&gt;&lt;/denchmark-h&gt;

		</comment>
		<comment id='3' author='leandroimail' date='2020-07-24T07:17:11Z'>
		Similar Issue here with the StructuredDataRegessor
		</comment>
		<comment id='4' author='leandroimail' date='2020-09-22T12:20:49Z'>
		This issue has been automatically marked as stale because it has not had recent activity. It will be closed if no further activity occurs. Thank you for your contributions.
…
