…
&lt;denchmark-h:h4&gt;Browser version&lt;/denchmark-h&gt;

Chrome 75.0.3770.100 (Official Build) (64-bit)
&lt;denchmark-h:h4&gt;Tensorflow&lt;/denchmark-h&gt;

Tensorflow 2.0 Beta
&lt;denchmark-h:h4&gt;Describe the problem or feature request&lt;/denchmark-h&gt;

I export my trained model (Work great with Tensorflow 2.0 and Keras)
&lt;denchmark-code&gt;Model: "sequential_1"
_________________________________________________________________
Layer (type)                 Output Shape              Param #   
=================================================================
conv2d_4 (Conv2D)            (None, 28, 28, 32)        160       
_________________________________________________________________
leaky_re_lu (LeakyReLU)      (None, 28, 28, 32)        0         
_________________________________________________________________
max_pooling2d_2 (MaxPooling2 (None, 14, 14, 32)        0         
_________________________________________________________________
dropout_3 (Dropout)          (None, 14, 14, 32)        0         
_________________________________________________________________
conv2d_5 (Conv2D)            (None, 13, 13, 64)        8256      
_________________________________________________________________
leaky_re_lu_1 (LeakyReLU)    (None, 13, 13, 64)        0         
_________________________________________________________________
dropout_4 (Dropout)          (None, 13, 13, 64)        0         
_________________________________________________________________
max_pooling2d_3 (MaxPooling2 (None, 6, 6, 64)          0         
_________________________________________________________________
dropout_5 (Dropout)          (None, 6, 6, 64)          0         
_________________________________________________________________
conv2d_6 (Conv2D)            (None, 5, 5, 196)         50372     
_________________________________________________________________
leaky_re_lu_2 (LeakyReLU)    (None, 5, 5, 196)         0         
_________________________________________________________________
dropout_6 (Dropout)          (None, 5, 5, 196)         0         
_________________________________________________________________
max_pooling2d_4 (MaxPooling2 (None, 2, 2, 196)         0         
_________________________________________________________________
dropout_7 (Dropout)          (None, 2, 2, 196)         0         
_________________________________________________________________
global_max_pooling2d (Global (None, 196)               0         
_________________________________________________________________
flatten_1 (Flatten)          (None, 196)               0         
_________________________________________________________________
dense_2 (Dense)              (None, 1024)              201728    
_________________________________________________________________
leaky_re_lu_3 (LeakyReLU)    (None, 1024)              0         
_________________________________________________________________
dropout_8 (Dropout)          (None, 1024)              0         
_________________________________________________________________
dense_3 (Dense)              (None, 62)                63550     
=================================================================
Total params: 324,066
Trainable params: 324,066
Non-trainable params: 0
________________________
&lt;/denchmark-code&gt;

with
&lt;denchmark-code&gt;import tensorflowjs as tfjs
tfjs.converters.save_keras_model(model, "./js")
&lt;/denchmark-code&gt;

but when i load with
&lt;denchmark-code&gt;  &lt;script src="https://cdn.jsdelivr.net/npm/@tensorflow/tfjs@1.1.2/dist/tf.min.js"&gt;&lt;/script&gt;
…
