…
I cannot paste my entire code here but below, I added the model summary. The model is highly nested as it has two layers of independent branches for multi-task learning and multiple parameter prediction per task, in case you are wondering.
&lt;denchmark-h:h3&gt;What I Did&lt;/denchmark-h&gt;


wandb.watch(self.model)
wandb.init(project='myproject', dir='/workspace/myproject/')
Start model training.
The error occurs instantly.

I also changed the recursion limit sys.setrecursionlimit(50000), but this did not resolve the issue.
I appreciate any hints!
Model summary
&lt;denchmark-code&gt;MultiTaskModel(
  (shared): LSTM(
    (lstm): LSTM(3, 32, num_layers=2)
    (linear): MultilinearLayer(
      (model): Sequential(
        (0): Linear(in_features=32, out_features=32, bias=True)
        (1): Dropout(p=0.0)
        (2): Sigmoid()
        (3): Linear(in_features=32, out_features=32, bias=True)
        (4): Dropout(p=0.0)
        (5): Sigmoid()
      )
    )
  )
  (branches): MultilayerBranches(
    (branches): ModuleDict(
      (shared_out): ModuleDict(
        (et): MultilinearLayer(
          (model): Sequential(
            (0): Linear(in_features=32, out_features=32, bias=True)
            (1): Dropout(p=0.0)
            (2): Sigmoid()
            (3): Linear(in_features=32, out_features=32, bias=True)
            (4): Dropout(p=0.0)
            (5): Sigmoid()
          )
        )
        (lwe): MultilinearLayer(
          (model): Sequential(
            (0): Linear(in_features=32, out_features=32, bias=True)
            (1): Dropout(p=0.0)
            (2): Sigmoid()
            (3): Linear(in_features=32, out_features=32, bias=True)
            (4): Dropout(p=0.0)
            (5): Sigmoid()
          )
        )
        (swe): MultilinearLayer(
          (model): Sequential(
            (0): Linear(in_features=32, out_features=32, bias=True)
            (1): Dropout(p=0.0)
            (2): Sigmoid()
            (3): Linear(in_features=32, out_features=32, bias=True)
            (4): Dropout(p=0.0)
            (5): Sigmoid()
          )
        )
      )
    )
  )
  (hetbranches): MultilayerBranches(
    (branches): ModuleDict(
      (et): ModuleDict(
        (mu): MultilinearLayer(
          (model): Sequential(
            (0): Linear(in_features=32, out_features=32, bias=True)
            (1): Dropout(p=0.0)
            (2): Sigmoid()
            (3): Linear(in_features=32, out_features=1, bias=True)
            (4): Dropout(p=0.0)
            (5): Sigmoid()
          )
        )
      )
      (lwe): ModuleDict(
        (mu): MultilinearLayer(
          (model): Sequential(
            (0): Linear(in_features=32, out_features=32, bias=True)
            (1): Dropout(p=0.0)
            (2): Sigmoid()
            (3): Linear(in_features=32, out_features=1, bias=True)
            (4): Dropout(p=0.0)
            (5): Sigmoid()
          )
        )
      )
      (swe): ModuleDict(
        (mu): MultilinearLayer(
          (model): Sequential(
            (0): Linear(in_features=32, out_features=32, bias=True)
            (1): Dropout(p=0.0)
            (2): Sigmoid()
            (3): Linear(in_features=32, out_features=1, bias=True)
            (4): Dropout(p=0.0)
            (5): Sigmoid()
          )
        )
      )
    )
  )
)
&lt;/denchmark-code&gt;

Traceback
&lt;denchmark-code&gt;---------------------------------------------------------------------------
RecursionError                            Traceback (most recent call last)
&lt;ipython-input-18-1247abacf757&gt; in &lt;module&gt;
…
