…
		</comment>
		<comment id='5' author='eric-haibin-lin' date='2020-04-10T17:12:05Z'>
		I also tried to build both mxnet and bytePS from source, with gcc 7.4, and the following is the stacktrace:
&lt;denchmark-code&gt;BytePS launching worker
warning: Error disabling address space randomization: Operation not permitted
--------------------------------------------------------------------------------
        Layer (type)                                Output Shape         Param #
================================================================================
               Input                              (1, 1, 28, 28)               0
        Activation-1   &lt;Symbol hybridsequential0_conv0_relu_fwd&gt;               0
        Activation-2                             (1, 20, 24, 24)               0
            Conv2D-3                             (1, 20, 24, 24)             520
         MaxPool2D-4                             (1, 20, 12, 12)               0
        Activation-5   &lt;Symbol hybridsequential0_conv1_relu_fwd&gt;               0
        Activation-6                               (1, 50, 8, 8)               0
            Conv2D-7                               (1, 50, 8, 8)           25050
         MaxPool2D-8                               (1, 50, 4, 4)               0
           Flatten-9                                    (1, 800)               0
       Activation-10  &lt;Symbol hybridsequential0_dense0_relu_fwd&gt;               0
       Activation-11                                    (1, 512)               0
            Dense-12                                    (1, 512)          410112
            Dense-13                                     (1, 10)            5130
================================================================================
Parameters in forward computation graph, duplicate included
   Total params: 440812
   Trainable params: 440812
   Non-trainable params: 0
Shared params in forward computation graph: 0
Unique parameters in model: 440812
--------------------------------------------------------------------------------
Thread 1 "python3" received signal SIGSEGV, Segmentation fault.
…
