…
rmup_init_lr=-1, warmup_updates=2000, weight_decay=0.0, zero_sharding='none')
2020-11-03 12:56:19 | INFO | fairseq.tasks.translation | [it] dictionary: 45000 types
2020-11-03 12:56:19 | INFO | fairseq.tasks.translation | [en] dictionary: 45000 types
2020-11-03 12:56:19 | INFO | fairseq.data.data_utils | loaded 51975 examples from: ./data-bin/valid.it-en.it
2020-11-03 12:56:19 | INFO | fairseq.tasks.translation | ./data-bin valid it-en 51975 examples
2020-11-03 12:56:21 | INFO | fairseq_cli.train | TransformerModel(
(encoder): TransformerEncoder(
(dropout_module): FairseqDropout()
(embed_tokens): Embedding(45000, 1024, padding_idx=1)
(embed_positions): SinusoidalPositionalEmbedding()
(layers): ModuleList(
(0): TransformerEncoderLayer(
(self_attn): MultiheadAttention(
(dropout_module): FairseqDropout()
(k_proj): Linear(in_features=1024, out_features=1024, bias=True)
(v_proj): Linear(in_features=1024, out_features=1024, bias=True)
(q_proj): Linear(in_features=1024, out_features=1024, bias=True)
(out_proj): Linear(in_features=1024, out_features=1024, bias=True)
)
(self_attn_layer_norm): LayerNorm((1024,), eps=1e-05, elementwise_affine=True)
(dropout_module): FairseqDropout()
(activation_dropout_module): FairseqDropout()
(fc1): Linear(in_features=1024, out_features=4096, bias=True)
(fc2): Linear(in_features=4096, out_features=1024, bias=True)
(final_layer_norm): LayerNorm((1024,), eps=1e-05, elementwise_affine=True)
)
(1): TransformerEncoderLayer(
(self_attn): MultiheadAttention(
(dropout_module): FairseqDropout()
(k_proj): Linear(in_features=1024, out_features=1024, bias=True)
(v_proj): Linear(in_features=1024, out_features=1024, bias=True)
(q_proj): Linear(in_features=1024, out_features=1024, bias=True)
(out_proj): Linear(in_features=1024, out_features=1024, bias=True)
)
(self_attn_layer_norm): LayerNorm((1024,), eps=1e-05, elementwise_affine=True)
(dropout_module): FairseqDropout()
(activation_dropout_module): FairseqDropout()
(fc1): Linear(in_features=1024, out_features=4096, bias=True)
(fc2): Linear(in_features=4096, out_features=1024, bias=True)
(final_layer_norm): LayerNorm((1024,), eps=1e-05, elementwise_affine=True)
)
(2): TransformerEncoderLayer(
(self_attn): MultiheadAttention(
(dropout_module): FairseqDropout()
(k_proj): Linear(in_features=1024, out_features=1024, bias=True)
(v_proj): Linear(in_features=1024, out_features=1024, bias=True)
(q_proj): Linear(in_features=1024, out_features=1024, bias=True)
(out_proj): Linear(in_features=1024, out_features=1024, bias=True)
)
(self_attn_layer_norm): LayerNorm((1024,), eps=1e-05, elementwise_affine=True)
(dropout_module): FairseqDropout()
(activation_dropout_module): FairseqDropout()
(fc1): Linear(in_features=1024, out_features=4096, bias=True)
(fc2): Linear(in_features=4096, out_features=1024, bias=True)
(final_layer_norm): LayerNorm((1024,), eps=1e-05, elementwise_affine=True)
)
(3): TransformerEncoderLayer(
(self_attn): MultiheadAttention(
(dropout_module): FairseqDropout()
(k_proj): Linear(in_features=1024, out_features=1024, bias=True)
(v_proj): Linear(in_features=1024, out_features=1024, bias=True)
(q_proj): Linear(in_features=1024, out_features=1024, bias=True)
(out_proj): Linear(in_features=1024, out_features=1024, bias=True)
)
(self_attn_layer_norm): LayerNorm((1024,), eps=1e-05, elementwise_affine=True)
(dropout_module): FairseqDropout()
(activation_dropout_module): FairseqDropout()
(fc1): Linear(in_features=1024, out_features=4096, bias=True)
(fc2): Linear(in_features=4096, out_features=1024, bias=True)
(final_layer_norm): LayerNorm((1024,), eps=1e-05, elementwise_affine=True)
)
(4): TransformerEncoderLayer(
(self_attn): MultiheadAttention(
(dropout_module): FairseqDropout()
(k_proj): Linear(in_features=1024, out_features=1024, bias=True)
(v_proj): Linear(in_features=1024, out_features=1024, bias=True)
(q_proj): Linear(in_features=1024, out_features=1024, bias=True)
(out_proj): Linear(in_features=1024, out_features=1024, bias=True)
)
(self_attn_layer_norm): LayerNorm((1024,), eps=1e-05, elementwise_affine=True)
(dropout_module): FairseqDropout()
(activation_dropout_module): FairseqDropout()
(fc1): Linear(in_features=1024, out_features=4096, bias=True)
(fc2): Linear(in_features=4096, out_features=1024, bias=True)
(final_layer_norm): LayerNorm((1024,), eps=1e-05, elementwise_affine=True)
)
(5): TransformerEncoderLayer(
(self_attn): MultiheadAttention(
(dropout_module): FairseqDropout()
(k_proj): Linear(in_features=1024, out_features=1024, bias=True)
(v_proj): Linear(in_features=1024, out_features=1024, bias=True)
(q_proj): Linear(in_features=1024, out_features=1024, bias=True)
(out_proj): Linear(in_features=1024, out_features=1024, bias=True)
)
(self_attn_layer_norm): LayerNorm((1024,), eps=1e-05, elementwise_affine=True)
(dropout_module): FairseqDropout()
(activation_dropout_module): FairseqDropout()
(fc1): Linear(in_features=1024, out_features=4096, bias=True)
(fc2): Linear(in_features=4096, out_features=1024, bias=True)
(final_layer_norm): LayerNorm((1024,), eps=1e-05, elementwise_affine=True)
)
)
(layer_norm): LayerNorm((1024,), eps=1e-05, elementwise_affine=True)
)
(decoder): TransformerDecoder(
(dropout_module): FairseqDropout()
(embed_tokens): Embedding(45000, 1024, padding_idx=1)
(embed_positions): SinusoidalPositionalEmbedding()
(layers): ModuleList(
(0): TransformerDecoderLayer(
(dropout_module): FairseqDropout()
(self_attn): MultiheadAttention(
(dropout_module): FairseqDropout()
(k_proj): Linear(in_features=1024, out_features=1024, bias=True)
(v_proj): Linear(in_features=1024, out_features=1024, bias=True)
(q_proj): Linear(in_features=1024, out_features=1024, bias=True)
(out_proj): Linear(in_features=1024, out_features=1024, bias=True)
)
(activation_dropout_module): FairseqDropout()
(self_attn_layer_norm): LayerNorm((1024,), eps=1e-05, elementwise_affine=True)
(encoder_attn): MultiheadAttention(
(dropout_module): FairseqDropout()
(k_proj): Linear(in_features=1024, out_features=1024, bias=True)
(v_proj): Linear(in_features=1024, out_features=1024, bias=True)
(q_proj): Linear(in_features=1024, out_features=1024, bias=True)
(out_proj): Linear(in_features=1024, out_features=1024, bias=True)
)
(encoder_attn_layer_norm): LayerNorm((1024,), eps=1e-05, elementwise_affine=True)
(fc1): Linear(in_features=1024, out_features=4096, bias=True)
(fc2): Linear(in_features=4096, out_features=1024, bias=True)
(final_layer_norm): LayerNorm((1024,), eps=1e-05, elementwise_affine=True)
)
(1): TransformerDecoderLayer(
(dropout_module): FairseqDropout()
(self_attn): MultiheadAttention(
(dropout_module): FairseqDropout()
(k_proj): Linear(in_features=1024, out_features=1024, bias=True)
(v_proj): Linear(in_features=1024, out_features=1024, bias=True)
(q_proj): Linear(in_features=1024, out_features=1024, bias=True)
(out_proj): Linear(in_features=1024, out_features=1024, bias=True)
)
(activation_dropout_module): FairseqDropout()
(self_attn_layer_norm): LayerNorm((1024,), eps=1e-05, elementwise_affine=True)
(encoder_attn): MultiheadAttention(
(dropout_module): FairseqDropout()
(k_proj): Linear(in_features=1024, out_features=1024, bias=True)
(v_proj): Linear(in_features=1024, out_features=1024, bias=True)
(q_proj): Linear(in_features=1024, out_features=1024, bias=True)
(out_proj): Linear(in_features=1024, out_features=1024, bias=True)
)
(encoder_attn_layer_norm): LayerNorm((1024,), eps=1e-05, elementwise_affine=True)
(fc1): Linear(in_features=1024, out_features=4096, bias=True)
(fc2): Linear(in_features=4096, out_features=1024, bias=True)
(final_layer_norm): LayerNorm((1024,), eps=1e-05, elementwise_affine=True)
)
(2): TransformerDecoderLayer(
(dropout_module): FairseqDropout()
(self_attn): MultiheadAttention(
(dropout_module): FairseqDropout()
(k_proj): Linear(in_features=1024, out_features=1024, bias=True)
(v_proj): Linear(in_features=1024, out_features=1024, bias=True)
(q_proj): Linear(in_features=1024, out_features=1024, bias=True)
(out_proj): Linear(in_features=1024, out_features=1024, bias=True)
)
(activation_dropout_module): FairseqDropout()
(self_attn_layer_norm): LayerNorm((1024,), eps=1e-05, elementwise_affine=True)
(encoder_attn): MultiheadAttention(
(dropout_module): FairseqDropout()
(k_proj): Linear(in_features=1024, out_features=1024, bias=True)
(v_proj): Linear(in_features=1024, out_features=1024, bias=True)
(q_proj): Linear(in_features=1024, out_features=1024, bias=True)
(out_proj): Linear(in_features=1024, out_features=1024, bias=True)
)
(encoder_attn_layer_norm): LayerNorm((1024,), eps=1e-05, elementwise_affine=True)
(fc1): Linear(in_features=1024, out_features=4096, bias=True)
(fc2): Linear(in_features=4096, out_features=1024, bias=True)
(final_layer_norm): LayerNorm((1024,), eps=1e-05, elementwise_affine=True)
)
(3): TransformerDecoderLayer(
(dropout_module): FairseqDropout()
(self_attn): MultiheadAttention(
(dropout_module): FairseqDropout()
(k_proj): Linear(in_features=1024, out_features=1024, bias=True)
(v_proj): Linear(in_features=1024, out_features=1024, bias=True)
(q_proj): Linear(in_features=1024, out_features=1024, bias=True)
(out_proj): Linear(in_features=1024, out_features=1024, bias=True)
)
(activation_dropout_module): FairseqDropout()
(self_attn_layer_norm): LayerNorm((1024,), eps=1e-05, elementwise_affine=True)
(encoder_attn): MultiheadAttention(
(dropout_module): FairseqDropout()
(k_proj): Linear(in_features=1024, out_features=1024, bias=True)
(v_proj): Linear(in_features=1024, out_features=1024, bias=True)
(q_proj): Linear(in_features=1024, out_features=1024, bias=True)
(out_proj): Linear(in_features=1024, out_features=1024, bias=True)
)
(encoder_attn_layer_norm): LayerNorm((1024,), eps=1e-05, elementwise_affine=True)
(fc1): Linear(in_features=1024, out_features=4096, bias=True)
(fc2): Linear(in_features=4096, out_features=1024, bias=True)
(final_layer_norm): LayerNorm((1024,), eps=1e-05, elementwise_affine=True)
)
(4): TransformerDecoderLayer(
(dropout_module): FairseqDropout()
(self_attn): MultiheadAttention(
(dropout_module): FairseqDropout()
(k_proj): Linear(in_features=1024, out_features=1024, bias=True)
(v_proj): Linear(in_features=1024, out_features=1024, bias=True)
(q_proj): Linear(in_features=1024, out_features=1024, bias=True)
(out_proj): Linear(in_features=1024, out_features=1024, bias=True)
)
(activation_dropout_module): FairseqDropout()
(self_attn_layer_norm): LayerNorm((1024,), eps=1e-05, elementwise_affine=True)
(encoder_attn): MultiheadAttention(
(dropout_module): FairseqDropout()
(k_proj): Linear(in_features=1024, out_features=1024, bias=True)
(v_proj): Linear(in_features=1024, out_features=1024, bias=True)
(q_proj): Linear(in_features=1024, out_features=1024, bias=True)
(out_proj): Linear(in_features=1024, out_features=1024, bias=True)
)
(encoder_attn_layer_norm): LayerNorm((1024,), eps=1e-05, elementwise_affine=True)
(fc1): Linear(in_features=1024, out_features=4096, bias=True)
(fc2): Linear(in_features=4096, out_features=1024, bias=True)
(final_layer_norm): LayerNorm((1024,), eps=1e-05, elementwise_affine=True)
)
(5): TransformerDecoderLayer(
(dropout_module): FairseqDropout()
(self_attn): MultiheadAttention(
(dropout_module): FairseqDropout()
(k_proj): Linear(in_features=1024, out_features=1024, bias=True)
(v_proj): Linear(in_features=1024, out_features=1024, bias=True)
(q_proj): Linear(in_features=1024, out_features=1024, bias=True)
(out_proj): Linear(in_features=1024, out_features=1024, bias=True)
)
(activation_dropout_module): FairseqDropout()
(self_attn_layer_norm): LayerNorm((1024,), eps=1e-05, elementwise_affine=True)
(encoder_attn): MultiheadAttention(
(dropout_module): FairseqDropout()
(k_proj): Linear(in_features=1024, out_features=1024, bias=True)
(v_proj): Linear(in_features=1024, out_features=1024, bias=True)
(q_proj): Linear(in_features=1024, out_features=1024, bias=True)
(out_proj): Linear(in_features=1024, out_features=1024, bias=True)
)
(encoder_attn_layer_norm): LayerNorm((1024,), eps=1e-05, elementwise_affine=True)
(fc1): Linear(in_features=1024, out_features=4096, bias=True)
(fc2): Linear(in_features=4096, out_features=1024, bias=True)
(final_layer_norm): LayerNorm((1024,), eps=1e-05, elementwise_affine=True)
)
)
(layer_norm): LayerNorm((1024,), eps=1e-05, elementwise_affine=True)
(output_projection): Linear(in_features=1024, out_features=45000, bias=False)
)
)
2020-11-03 12:56:21 | INFO | fairseq_cli.train | task: translation (TranslationTask)
2020-11-03 12:56:21 | INFO | fairseq_cli.train | model: transformer_wmt_en_de_big_t2t (TransformerModel)
2020-11-03 12:56:21 | INFO | fairseq_cli.train | criterion: label_smoothed_cross_entropy (LabelSmoothedCrossEntropyCriterion)
2020-11-03 12:56:21 | INFO | fairseq_cli.train | num. model params: 222441472 (num. trained: 222441472)
…
