…
nk:https://colab.research.google.com/drive/19WzwYTzs78DNvQ7VTw_37hbXq3l5ozsk?usp=sharing>https://colab.research.google.com/drive/19WzwYTzs78DNvQ7VTw_37hbXq3l5ozsk?usp=sharing</denchmark-link>\n \n My input is 872 embeddings (from integer 0 to 872), output is n=206 classifications. AWD_LSTM works fine. However, when I changed to AWD_QRNN, it shows the bug below.\n config = awd_qrnn_clas_config.copy()\n config.update({'bidir':True})\n model =get_text_classifier(AWD_QRNN, 872, 206, seq_len=872, config=config)\n print(model)\n SequentialRNN(\n (0): SentenceEncoder(\n (module): AWD_QRNN(\n (encoder): Embedding(872, 400, padding_idx=1)\n (encoder_dp): EmbeddingDropout(\n (emb): Embedding(872, 400, padding_idx=1)\n )\n (rnns): ModuleList(\n (0): QRNN(\n (layers): ModuleList(\n (0): QRNNLayer(\n (linear): WeightDropout(\n (module): Linear(in_features=800, out_features=2328, bias=True)\n )\n )\n )\n (layers_bwd): ModuleList(\n (0): QRNNLayer(\n (linear): Linear(in_features=800, out_features=2328, bias=True)\n )\n )\n )\n (1): QRNN(\n (layers): ModuleList(\n (0): QRNNLayer(\n (linear): WeightDropout(\n (module): Linear(in_features=1552, out_features=2328, bias=True)\n )\n )\n )\n (layers_bwd): ModuleList(\n (0): QRNNLayer(\n (linear): Linear(in_features=1552, out_features=2328, bias=True)\n )\n )\n )\n (2): QRNN(\n (layers): ModuleList(\n (0): QRNNLayer(\n (linear): WeightDropout(\n (module): Linear(in_features=1552, out_features=2328, bias=True)\n )\n )\n )\n (layers_bwd): ModuleList(\n (0): QRNNLayer(\n (linear): Linear(in_features=1552, out_features=2328, bias=True)\n )\n )\n )\n (3): QRNN(\n (layers): ModuleList(\n (0): QRNNLayer(\n (linear): WeightDropout(\n (module): Linear(in_features=1552, out_features=600, bias=True)\n )\n )\n )\n (layers_bwd): ModuleList(\n (0): QRNNLayer(\n (linear): Linear(in_features=1552, out_features=600, bias=True)\n )\n )\n )\n )\n (input_dp): RNNDropout()\n (hidden_dps): ModuleList(\n (0): RNNDropout()\n (1): RNNDropout()\n (2): RNNDropout()\n (3): RNNDropout()\n )\n )\n )\n (1): PoolingLinearClassifier(\n (layers): Sequential(\n (0): LinBnDrop(\n (0): BatchNorm1d(1200, eps=1e-05, momentum=0.1, affine=True, track_running_stats=True)\n (1): Dropout(p=0.4, inplace=False)\n (2): Linear(in_features=1200, out_features=50, bias=False)\n (3): ReLU(inplace=True)\n )\n (1): LinBnDrop(\n (0): BatchNorm1d(50, eps=1e-05, momentum=0.1, affine=True, track_running_stats=True)\n (1): Dropout(p=0.1, inplace=False)\n (2): Linear(in_features=50, out_features=206, bias=False)\n )\n )\n )\n )\n x, y = dls.one_batch()\n model(x)\n <denchmark-link:https://user-images.githubusercontent.com/34699116/98629613-dd8cac00-22de-11eb-8e9b-b47cc137e6e2.png></denchmark-link>\n \n Everything works well with AWD_LSTM, but not with AWD_QRNN. Please fix it. Thanks.\n \t"}, "comments": {"comments_0": {"comment_id": 1, "comment_author": "sky1o
…
