…
from tensorflow.keras.layers import Activation, Dense, Flatten
from tensorflow.keras.optimizers import Adam
from tcn import TCN
&lt;/denchmark-code&gt;

Calling this build_model for a batchSize=1, numTimeSteps=61, numTargets=12, numFeats=10 gives this result on the old setup:
&lt;denchmark-code&gt;__________________________________________________________________________________________________
Layer (type)                    Output Shape         Param #     Connected to                     
==================================================================================================
input_1 (InputLayer)            (1, 61, 10)          0                                            
__________________________________________________________________________________________________
conv1d_1 (Conv1D)               (1, 61, 16)          176         input_1[0][0]                    
__________________________________________________________________________________________________
conv1d_2 (Conv1D)               (1, 61, 16)          784         conv1d_1[0][0]                   
__________________________________________________________________________________________________
batch_normalization_1 (BatchNor (1, 61, 16)          64          conv1d_2[0][0]                   
__________________________________________________________________________________________________
activation_1 (Activation)       (1, 61, 16)          0           batch_normalization_1[0][0]      
__________________________________________________________________________________________________
spatial_dropout1d_1 (SpatialDro (1, 61, 16)          0           activation_1[0][0]               
__________________________________________________________________________________________________
conv1d_3 (Conv1D)               (1, 61, 16)          784         spatial_dropout1d_1[0][0]        
__________________________________________________________________________________________________
batch_normalization_2 (BatchNor (1, 61, 16)          64          conv1d_3[0][0]                   
__________________________________________________________________________________________________
activation_2 (Activation)       (1, 61, 16)          0           batch_normalization_2[0][0]      
__________________________________________________________________________________________________
conv1d_4 (Conv1D)               (1, 61, 16)          272         conv1d_1[0][0]                   
__________________________________________________________________________________________________
spatial_dropout1d_2 (SpatialDro (1, 61, 16)          0           activation_2[0][0]               
__________________________________________________________________________________________________
add_1 (Add)                     (1, 61, 16)          0           conv1d_4[0][0]                   
                                                                 spatial_dropout1d_2[0][0]        
__________________________________________________________________________________________________
activation_3 (Activation)       (1, 61, 16)          0           add_1[0][0]                      
__________________________________________________________________________________________________
conv1d_5 (Conv1D)               (1, 61, 48)          816         activation_3[0][0]               
__________________________________________________________________________________________________
conv1d_6 (Conv1D)               (1, 61, 48)          6960        conv1d_5[0][0]                   
__________________________________________________________________________________________________
batch_normalization_3 (BatchNor (1, 61, 48)          192         conv1d_6[0][0]                   
__________________________________________________________________________________________________
activation_4 (Activation)       (1, 61, 48)          0           batch_normalization_3[0][0]      
__________________________________________________________________________________________________
spatial_dropout1d_3 (SpatialDro (1, 61, 48)          0           activation_4[0][0]               
__________________________________________________________________________________________________
conv1d_7 (Conv1D)               (1, 61, 48)          6960        spatial_dropout1d_3[0][0]        
__________________________________________________________________________________________________
batch_normalization_4 (BatchNor (1, 61, 48)          192         conv1d_7[0][0]                   
__________________________________________________________________________________________________
activation_5 (Activation)       (1, 61, 48)          0           batch_normalization_4[0][0]      
__________________________________________________________________________________________________
spatial_dropout1d_4 (SpatialDro (1, 61, 48)          0           activation_5[0][0]               
__________________________________________________________________________________________________
conv1d_8 (Conv1D)               (1, 61, 48)          2352        conv1d_5[0][0]                   
__________________________________________________________________________________________________
add_2 (Add)                     (1, 61, 48)          0           conv1d_8[0][0]                   
                                                                 spatial_dropout1d_4[0][0]        
__________________________________________________________________________________________________
activation_6 (Activation)       (1, 61, 48)          0           add_2[0][0]                      
__________________________________________________________________________________________________
conv1d_9 (Conv1D)               (1, 61, 48)          6960        activation_6[0][0]               
__________________________________________________________________________________________________
batch_normalization_5 (BatchNor (1, 61, 48)          192         conv1d_9[0][0]                   
__________________________________________________________________________________________________
activation_7 (Activation)       (1, 61, 48)          0           batch_normalization_5[0][0]      
__________________________________________________________________________________________________
spatial_dropout1d_5 (SpatialDro (1, 61, 48)          0           activation_7[0][0]               
__________________________________________________________________________________________________
conv1d_10 (Conv1D)              (1, 61, 48)          6960        spatial_dropout1d_5[0][0]        
__________________________________________________________________________________________________
batch_normalization_6 (BatchNor (1, 61, 48)          192         conv1d_10[0][0]                  
__________________________________________________________________________________________________
activation_8 (Activation)       (1, 61, 48)          0           batch_normalization_6[0][0]      
__________________________________________________________________________________________________
spatial_dropout1d_6 (SpatialDro (1, 61, 48)          0           activation_8[0][0]               
__________________________________________________________________________________________________
conv1d_11 (Conv1D)              (1, 61, 48)          2352        activation_6[0][0]               
__________________________________________________________________________________________________
add_3 (Add)                     (1, 61, 48)          0           conv1d_11[0][0]                  
                                                                 spatial_dropout1d_6[0][0]        
__________________________________________________________________________________________________
activation_9 (Activation)       (1, 61, 48)          0           add_3[0][0]                      
__________________________________________________________________________________________________
conv1d_12 (Conv1D)              (1, 61, 48)          6960        activation_9[0][0]               
__________________________________________________________________________________________________
batch_normalization_7 (BatchNor (1, 61, 48)          192         conv1d_12[0][0]                  
__________________________________________________________________________________________________
activation_10 (Activation)      (1, 61, 48)          0           batch_normalization_7[0][0]      
__________________________________________________________________________________________________
spatial_dropout1d_7 (SpatialDro (1, 61, 48)          0           activation_10[0][0]              
__________________________________________________________________________________________________
conv1d_13 (Conv1D)              (1, 61, 48)          6960        spatial_dropout1d_7[0][0]        
__________________________________________________________________________________________________
batch_normalization_8 (BatchNor (1, 61, 48)          192         conv1d_13[0][0]                  
__________________________________________________________________________________________________
activation_11 (Activation)      (1, 61, 48)          0           batch_normalization_8[0][0]      
__________________________________________________________________________________________________
spatial_dropout1d_8 (SpatialDro (1, 61, 48)          0           activation_11[0][0]              
__________________________________________________________________________________________________
add_5 (Add)                     (1, 61, 48)          0           spatial_dropout1d_4[0][0]        
                                                                 spatial_dropout1d_6[0][0]        
                                                                 spatial_dropout1d_8[0][0]        
__________________________________________________________________________________________________
average_pooling1d_1 (AveragePoo (1, 15, 48)          0           add_5[0][0]                      
__________________________________________________________________________________________________
flatten_1 (Flatten)             (1, 720)             0           average_pooling1d_1[0][0]        
__________________________________________________________________________________________________
dense_1 (Dense)                 (1, 12)              8652        flatten_1[0][0]                  
__________________________________________________________________________________________________
softmax (Activation)            (1, 12)              0           dense_1[0][0]                    
==================================================================================================
&lt;/denchmark-code&gt;

While giving following result on the new setup:
&lt;denchmark-code&gt;_________________________________________________________________
Layer (type)                 Output Shape              Param #   
=================================================================
input_1 (InputLayer)         [(1, 61, 10)]             0         
_________________________________________________________________
tcn_0 (TCN)                  (1, 61, 16)               2144      
_________________________________________________________________
tcn_1 (TCN)                  (1, 61, 48)               48432     
_________________________________________________________________
average_pooling1d (AveragePo (1, 15, 48)               0         
_________________________________________________________________
flatten (Flatten)            (1, 720)                  0         
_________________________________________________________________
dense (Dense)                (1, 12)                   8652      
_________________________________________________________________
softmax (Activation)         (1, 12)                   0         
=================================================================
&lt;/denchmark-code&gt;

Now, I have models that were trained using the old setup saved. Loading these with the command
model.load_weights('weights/model.hdf5', by_name=True) works fine for the old setup, while loading that model in the new setup gives unexpected results. It doesn't give an error when loading, but upon inference the accuracy on the new setup is always 0.
…
