…
		To have smaller network, we just change the parameters at the top of the file.
New Parameters:
n_filters=32
kernel_size=32
dilations=3
n_stacks=3
Also, this smaller network produce the same issue:
&lt;denchmark-h:hr&gt;&lt;/denchmark-h&gt;

&lt;denchmark-h:hr&gt;&lt;/denchmark-h&gt;

&lt;denchmark-h:hr&gt;&lt;/denchmark-h&gt;

Old TCN:
&lt;denchmark-h:hr&gt;&lt;/denchmark-h&gt;

&lt;denchmark-h:hr&gt;&lt;/denchmark-h&gt;

&lt;denchmark-h:hr&gt;&lt;/denchmark-h&gt;

&lt;denchmark-h:hr&gt;&lt;/denchmark-h&gt;

&lt;denchmark-h:h1&gt;Layer (type)                    Output Shape         Param #     Connected to&lt;/denchmark-h&gt;

input_1 (InputLayer)            (None, 1000, 1)      0
&lt;denchmark-h:hr&gt;&lt;/denchmark-h&gt;

batch_normalization_1 (BatchNor (None, 1000, 1)      4           input_1[0][0]
&lt;denchmark-h:hr&gt;&lt;/denchmark-h&gt;

conv1d_1 (Conv1D)               (None, 1000, 32)     64          batch_normalization_1[0][0]
&lt;denchmark-h:hr&gt;&lt;/denchmark-h&gt;

conv1d_2 (Conv1D)               (None, 1000, 32)     32800       conv1d_1[0][0]
&lt;denchmark-h:hr&gt;&lt;/denchmark-h&gt;

batch_normalization_2 (BatchNor (None, 1000, 32)     128         conv1d_2[0][0]
&lt;denchmark-h:hr&gt;&lt;/denchmark-h&gt;

activation_1 (Activation)       (None, 1000, 32)     0           batch_normalization_2[0][0]
&lt;denchmark-h:hr&gt;&lt;/denchmark-h&gt;

spatial_dropout1d_1 (SpatialDro (None, 1000, 32)     0           activation_1[0][0]
&lt;denchmark-h:hr&gt;&lt;/denchmark-h&gt;

conv1d_3 (Conv1D)               (None, 1000, 32)     32800       spatial_dropout1d_1[0][0]
&lt;denchmark-h:hr&gt;&lt;/denchmark-h&gt;

batch_normalization_3 (BatchNor (None, 1000, 32)     128         conv1d_3[0][0]
&lt;denchmark-h:hr&gt;&lt;/denchmark-h&gt;

activation_2 (Activation)       (None, 1000, 32)     0           batch_normalization_3[0][0]
&lt;denchmark-h:hr&gt;&lt;/denchmark-h&gt;

spatial_dropout1d_2 (SpatialDro (None, 1000, 32)     0           activation_2[0][0]
&lt;denchmark-h:hr&gt;&lt;/denchmark-h&gt;

conv1d_4 (Conv1D)               (None, 1000, 32)     1056        conv1d_1[0][0]
&lt;denchmark-h:hr&gt;&lt;/denchmark-h&gt;

add_1 (Add)                     (None, 1000, 32)     0           conv1d_4[0][0]
spatial_dropout1d_2[0][0]
&lt;denchmark-h:hr&gt;&lt;/denchmark-h&gt;

activation_3 (Activation)       (None, 1000, 32)     0           add_1[0][0]
&lt;denchmark-h:hr&gt;&lt;/denchmark-h&gt;

conv1d_5 (Conv1D)               (None, 1000, 32)     32800       activation_3[0][0]
&lt;denchmark-h:hr&gt;&lt;/denchmark-h&gt;

batch_normalization_4 (BatchNor (None, 1000, 32)     128         conv1d_5[0][0]
&lt;denchmark-h:hr&gt;&lt;/denchmark-h&gt;

activation_4 (Activation)       (None, 1000, 32)     0           batch_normalization_4[0][0]
&lt;denchmark-h:hr&gt;&lt;/denchmark-h&gt;

spatial_dropout1d_3 (SpatialDro (None, 1000, 32)     0           activation_4[0][0]
&lt;denchmark-h:hr&gt;&lt;/denchmark-h&gt;

conv1d_6 (Conv1D)               (None, 1000, 32)     32800       spatial_dropout1d_3[0][0]
&lt;denchmark-h:hr&gt;&lt;/denchmark-h&gt;

batch_normalization_5 (BatchNor (None, 1000, 32)     128         conv1d_6[0][0]
&lt;denchmark-h:hr&gt;&lt;/denchmark-h&gt;

activation_5 (Activation)       (None, 1000, 32)     0           batch_normalization_5[0][0]
&lt;denchmark-h:hr&gt;&lt;/denchmark-h&gt;

spatial_dropout1d_4 (SpatialDro (None, 1000, 32)     0           activation_5[0][0]
&lt;denchmark-h:hr&gt;&lt;/denchmark-h&gt;

conv1d_7 (Conv1D)               (None, 1000, 32)     1056        activation_3[0][0]
&lt;denchmark-h:hr&gt;&lt;/denchmark-h&gt;

add_2 (Add)                     (None, 1000, 32)     0           conv1d_7[0][0]
spatial_dropout1d_4[0][0]
&lt;denchmark-h:hr&gt;&lt;/denchmark-h&gt;

activation_6 (Activation)       (None, 1000, 32)     0           add_2[0][0]
&lt;denchmark-h:hr&gt;&lt;/denchmark-h&gt;

conv1d_8 (Conv1D)               (None, 1000, 32)     32800       activation_6[0][0]
&lt;denchmark-h:hr&gt;&lt;/denchmark-h&gt;

batch_normalization_6 (BatchNor (None, 1000, 32)     128         conv1d_8[0][0]
&lt;denchmark-h:hr&gt;&lt;/denchmark-h&gt;

activation_7 (Activation)       (None, 1000, 32)     0           batch_normalization_6[0][0]
&lt;denchmark-h:hr&gt;&lt;/denchmark-h&gt;

spatial_dropout1d_5 (SpatialDro (None, 1000, 32)     0           activation_7[0][0]
&lt;denchmark-h:hr&gt;&lt;/denchmark-h&gt;

conv1d_9 (Conv1D)               (None, 1000, 32)     32800       spatial_dropout1d_5[0][0]
&lt;denchmark-h:hr&gt;&lt;/denchmark-h&gt;

batch_normalization_7 (BatchNor (None, 1000, 32)     128         conv1d_9[0][0]
&lt;denchmark-h:hr&gt;&lt;/denchmark-h&gt;

activation_8 (Activation)       (None, 1000, 32)     0           batch_normalization_7[0][0]
&lt;denchmark-h:hr&gt;&lt;/denchmark-h&gt;

spatial_dropout1d_6 (SpatialDro (None, 1000, 32)     0           activation_8[0][0]
&lt;denchmark-h:hr&gt;&lt;/denchmark-h&gt;

conv1d_10 (Conv1D)              (None, 1000, 32)     1056        activation_6[0][0]
&lt;denchmark-h:hr&gt;&lt;/denchmark-h&gt;

add_3 (Add)                     (None, 1000, 32)     0           conv1d_10[0][0]
spatial_dropout1d_6[0][0]
&lt;denchmark-h:hr&gt;&lt;/denchmark-h&gt;

activation_9 (Activation)       (None, 1000, 32)     0           add_3[0][0]
&lt;denchmark-h:hr&gt;&lt;/denchmark-h&gt;

conv1d_11 (Conv1D)              (None, 1000, 32)     32800       activation_9[0][0]
&lt;denchmark-h:hr&gt;&lt;/denchmark-h&gt;

batch_normalization_8 (BatchNor (None, 1000, 32)     128         conv1d_11[0][0]
&lt;denchmark-h:hr&gt;&lt;/denchmark-h&gt;

activation_10 (Activation)      (None, 1000, 32)     0           batch_normalization_8[0][0]
&lt;denchmark-h:hr&gt;&lt;/denchmark-h&gt;

spatial_dropout1d_7 (SpatialDro (None, 1000, 32)     0           activation_10[0][0]
&lt;denchmark-h:hr&gt;&lt;/denchmark-h&gt;

conv1d_12 (Conv1D)              (None, 1000, 32)     32800       spatial_dropout1d_7[0][0]
&lt;denchmark-h:hr&gt;&lt;/denchmark-h&gt;

batch_normalization_9 (BatchNor (None, 1000, 32)     128         conv1d_12[0][0]
&lt;denchmark-h:hr&gt;&lt;/denchmark-h&gt;

activation_11 (Activation)      (None, 1000, 32)     0           batch_normalization_9[0][0]
&lt;denchmark-h:hr&gt;&lt;/denchmark-h&gt;

spatial_dropout1d_8 (SpatialDro (None, 1000, 32)     0           activation_11[0][0]
&lt;denchmark-h:hr&gt;&lt;/denchmark-h&gt;

conv1d_13 (Conv1D)              (None, 1000, 32)     1056        activation_9[0][0]
&lt;denchmark-h:hr&gt;&lt;/denchmark-h&gt;

add_4 (Add)                     (None, 1000, 32)     0           conv1d_13[0][0]
spatial_dropout1d_8[0][0]
&lt;denchmark-h:hr&gt;&lt;/denchmark-h&gt;

activation_12 (Activation)      (None, 1000, 32)     0           add_4[0][0]
&lt;denchmark-h:hr&gt;&lt;/denchmark-h&gt;

conv1d_14 (Conv1D)              (None, 1000, 32)     32800       activation_12[0][0]
&lt;denchmark-h:hr&gt;&lt;/denchmark-h&gt;

batch_normalization_10 (BatchNo (None, 1000, 32)     128         conv1d_14[0][0]
&lt;denchmark-h:hr&gt;&lt;/denchmark-h&gt;

activation_13 (Activation)      (None, 1000, 32)     0           batch_normalization_10[0][0]
&lt;denchmark-h:hr&gt;&lt;/denchmark-h&gt;

spatial_dropout1d_9 (SpatialDro (None, 1000, 32)     0           activation_13[0][0]
&lt;denchmark-h:hr&gt;&lt;/denchmark-h&gt;

conv1d_15 (Conv1D)              (None, 1000, 32)     32800       spatial_dropout1d_9[0][0]
&lt;denchmark-h:hr&gt;&lt;/denchmark-h&gt;

batch_normalization_11 (BatchNo (None, 1000, 32)     128         conv1d_15[0][0]
&lt;denchmark-h:hr&gt;&lt;/denchmark-h&gt;

activation_14 (Activation)      (None, 1000, 32)     0           batch_normalization_11[0][0]
&lt;denchmark-h:hr&gt;&lt;/denchmark-h&gt;

spatial_dropout1d_10 (SpatialDr (None, 1000, 32)     0           activation_14[0][0]
&lt;denchmark-h:hr&gt;&lt;/denchmark-h&gt;

conv1d_16 (Conv1D)              (None, 1000, 32)     1056        activation_12[0][0]
&lt;denchmark-h:hr&gt;&lt;/denchmark-h&gt;

add_5 (Add)                     (None, 1000, 32)     0           conv1d_16[0][0]
spatial_dropout1d_10[0][0]
&lt;denchmark-h:hr&gt;&lt;/denchmark-h&gt;

activation_15 (Activation)      (None, 1000, 32)     0           add_5[0][0]
&lt;denchmark-h:hr&gt;&lt;/denchmark-h&gt;

conv1d_17 (Conv1D)              (None, 1000, 32)     32800       activation_15[0][0]
&lt;denchmark-h:hr&gt;&lt;/denchmark-h&gt;

batch_normalization_12 (BatchNo (None, 1000, 32)     128         conv1d_17[0][0]
&lt;denchmark-h:hr&gt;&lt;/denchmark-h&gt;

activation_16 (Activation)      (None, 1000, 32)     0           batch_normalization_12[0][0]
&lt;denchmark-h:hr&gt;&lt;/denchmark-h&gt;

spatial_dropout1d_11 (SpatialDr (None, 1000, 32)     0           activation_16[0][0]
&lt;denchmark-h:hr&gt;&lt;/denchmark-h&gt;

conv1d_18 (Conv1D)              (None, 1000, 32)     32800       spatial_dropout1d_11[0][0]
&lt;denchmark-h:hr&gt;&lt;/denchmark-h&gt;

batch_normalization_13 (BatchNo (None, 1000, 32)     128         conv1d_18[0][0]
&lt;denchmark-h:hr&gt;&lt;/denchmark-h&gt;

activation_17 (Activation)      (None, 1000, 32)     0           batch_normalization_13[0][0]
&lt;denchmark-h:hr&gt;&lt;/denchmark-h&gt;

spatial_dropout1d_12 (SpatialDr (None, 1000, 32)     0           activation_17[0][0]
&lt;denchmark-h:hr&gt;&lt;/denchmark-h&gt;

conv1d_19 (Conv1D)              (None, 1000, 32)     1056        activation_15[0][0]
&lt;denchmark-h:hr&gt;&lt;/denchmark-h&gt;

add_6 (Add)                     (None, 1000, 32)     0           conv1d_19[0][0]
spatial_dropout1d_12[0][0]
&lt;denchmark-h:hr&gt;&lt;/denchmark-h&gt;

activation_18 (Activation)      (None, 1000, 32)     0           add_6[0][0]
&lt;denchmark-h:hr&gt;&lt;/denchmark-h&gt;

conv1d_20 (Conv1D)              (None, 1000, 32)     32800       activation_18[0][0]
&lt;denchmark-h:hr&gt;&lt;/denchmark-h&gt;

batch_normalization_14 (BatchNo (None, 1000, 32)     128         conv1d_20[0][0]
&lt;denchmark-h:hr&gt;&lt;/denchmark-h&gt;

activation_19 (Activation)      (None, 1000, 32)     0           batch_normalization_14[0][0]
&lt;denchmark-h:hr&gt;&lt;/denchmark-h&gt;

spatial_dropout1d_13 (SpatialDr (None, 1000, 32)     0           activation_19[0][0]
&lt;denchmark-h:hr&gt;&lt;/denchmark-h&gt;

conv1d_21 (Conv1D)              (None, 1000, 32)     32800       spatial_dropout1d_13[0][0]
&lt;denchmark-h:hr&gt;&lt;/denchmark-h&gt;

batch_normalization_15 (BatchNo (None, 1000, 32)     128         conv1d_21[0][0]
&lt;denchmark-h:hr&gt;&lt;/denchmark-h&gt;

activation_20 (Activation)      (None, 1000, 32)     0           batch_normalization_15[0][0]
&lt;denchmark-h:hr&gt;&lt;/denchmark-h&gt;

spatial_dropout1d_14 (SpatialDr (None, 1000, 32)     0           activation_20[0][0]
&lt;denchmark-h:hr&gt;&lt;/denchmark-h&gt;

conv1d_22 (Conv1D)              (None, 1000, 32)     1056        activation_18[0][0]
&lt;denchmark-h:hr&gt;&lt;/denchmark-h&gt;

add_7 (Add)                     (None, 1000, 32)     0           conv1d_22[0][0]
spatial_dropout1d_14[0][0]
&lt;denchmark-h:hr&gt;&lt;/denchmark-h&gt;

activation_21 (Activation)      (None, 1000, 32)     0           add_7[0][0]
&lt;denchmark-h:hr&gt;&lt;/denchmark-h&gt;

conv1d_23 (Conv1D)              (None, 1000, 32)     32800       activation_21[0][0]
&lt;denchmark-h:hr&gt;&lt;/denchmark-h&gt;

batch_normalization_16 (BatchNo (None, 1000, 32)     128         conv1d_23[0][0]
&lt;denchmark-h:hr&gt;&lt;/denchmark-h&gt;

activation_22 (Activation)      (None, 1000, 32)     0           batch_normalization_16[0][0]
&lt;denchmark-h:hr&gt;&lt;/denchmark-h&gt;

spatial_dropout1d_15 (SpatialDr (None, 1000, 32)     0           activation_22[0][0]
&lt;denchmark-h:hr&gt;&lt;/denchmark-h&gt;

conv1d_24 (Conv1D)              (None, 1000, 32)     32800       spatial_dropout1d_15[0][0]
&lt;denchmark-h:hr&gt;&lt;/denchmark-h&gt;

batch_normalization_17 (BatchNo (None, 1000, 32)     128         conv1d_24[0][0]
&lt;denchmark-h:hr&gt;&lt;/denchmark-h&gt;

activation_23 (Activation)      (None, 1000, 32)     0           batch_normalization_17[0][0]
&lt;denchmark-h:hr&gt;&lt;/denchmark-h&gt;

spatial_dropout1d_16 (SpatialDr (None, 1000, 32)     0           activation_23[0][0]
&lt;denchmark-h:hr&gt;&lt;/denchmark-h&gt;

conv1d_25 (Conv1D)              (None, 1000, 32)     1056        activation_21[0][0]
&lt;denchmark-h:hr&gt;&lt;/denchmark-h&gt;

add_8 (Add)                     (None, 1000, 32)     0           conv1d_25[0][0]
spatial_dropout1d_16[0][0]
&lt;denchmark-h:hr&gt;&lt;/denchmark-h&gt;

activation_24 (Activation)      (None, 1000, 32)     0           add_8[0][0]
&lt;denchmark-h:hr&gt;&lt;/denchmark-h&gt;

conv1d_26 (Conv1D)              (None, 1000, 32)     32800       activation_24[0][0]
&lt;denchmark-h:hr&gt;&lt;/denchmark-h&gt;

batch_normalization_18 (BatchNo (None, 1000, 32)     128         conv1d_26[0][0]
&lt;denchmark-h:hr&gt;&lt;/denchmark-h&gt;

activation_25 (Activation)      (None, 1000, 32)     0           batch_normalization_18[0][0]
&lt;denchmark-h:hr&gt;&lt;/denchmark-h&gt;

spatial_dropout1d_17 (SpatialDr (None, 1000, 32)     0           activation_25[0][0]
&lt;denchmark-h:hr&gt;&lt;/denchmark-h&gt;

conv1d_27 (Conv1D)              (None, 1000, 32)     32800       spatial_dropout1d_17[0][0]
&lt;denchmark-h:hr&gt;&lt;/denchmark-h&gt;

batch_normalization_19 (BatchNo (None, 1000, 32)     128         conv1d_27[0][0]
&lt;denchmark-h:hr&gt;&lt;/denchmark-h&gt;

activation_26 (Activation)      (None, 1000, 32)     0           batch_normalization_19[0][0]
&lt;denchmark-h:hr&gt;&lt;/denchmark-h&gt;

spatial_dropout1d_18 (SpatialDr (None, 1000, 32)     0           activation_26[0][0]
&lt;denchmark-h:hr&gt;&lt;/denchmark-h&gt;

add_10 (Add)                    (None, 1000, 32)     0           spatial_dropout1d_2[0][0]
spatial_dropout1d_4[0][0]
spatial_dropout1d_6[0][0]
spatial_dropout1d_8[0][0]
spatial_dropout1d_10[0][0]
spatial_dropout1d_12[0][0]
spatial_dropout1d_14[0][0]
spatial_dropout1d_16[0][0]
spatial_dropout1d_18[0][0]
&lt;denchmark-h:hr&gt;&lt;/denchmark-h&gt;

dropout_1 (Dropout)             (None, 1000, 32)     0           add_10[0][0]
&lt;denchmark-h:hr&gt;&lt;/denchmark-h&gt;

dense_1 (Dense)                 (None, 1000, 8)      264         dropout_1[0][0]
&lt;denchmark-h:hr&gt;&lt;/denchmark-h&gt;

&lt;denchmark-h:h1&gt;activation_28 (Activation)      (None, 1000, 8)      0           dense_1[0][0]&lt;/denchmark-h&gt;

Total params: 601,484
Trainable params: 600,330
Non-trainable params: 1,154
&lt;denchmark-h:hr&gt;&lt;/denchmark-h&gt;

WARNING:tensorflow:From /usr/local/lib/python3.6/dist-packages/tensorflow_core/python/ops/math_grad.py:1424: where (from tensorflow.python.ops.array_ops) is deprecated and will be removed in a future version.
Instructions for updating:
…
Epoch 10/3000
100/100 [==============================] - 30s 303ms/step - loss: 0.1338 - accuracy: 0.9526 - val_loss: 0.2854 - val_accuracy: 0.9140
&lt;denchmark-h:hr&gt;&lt;/denchmark-h&gt;

&lt;denchmark-h:hr&gt;&lt;/denchmark-h&gt;

&lt;denchmark-h:hr&gt;&lt;/denchmark-h&gt;

New TCN:
&lt;denchmark-h:hr&gt;&lt;/denchmark-h&gt;

&lt;denchmark-h:hr&gt;&lt;/denchmark-h&gt;

&lt;denchmark-h:hr&gt;&lt;/denchmark-h&gt;

&lt;denchmark-h:hr&gt;&lt;/denchmark-h&gt;

&lt;denchmark-h:h1&gt;Layer (type)                 Output Shape              Param #&lt;/denchmark-h&gt;

input_1 (InputLayer)         (None, 1000, 1)           0
&lt;denchmark-h:hr&gt;&lt;/denchmark-h&gt;

batch_normalization_1 (Batch (None, 1000, 1)           4
&lt;denchmark-h:hr&gt;&lt;/denchmark-h&gt;

tcn_1 (TCN)                  (None, 1000, 32)          601216
&lt;denchmark-h:hr&gt;&lt;/denchmark-h&gt;

dropout_1 (Dropout)          (None, 1000, 32)          0
&lt;denchmark-h:hr&gt;&lt;/denchmark-h&gt;

dense_1 (Dense)              (None, 1000, 8)           264
&lt;denchmark-h:hr&gt;&lt;/denchmark-h&gt;

&lt;denchmark-h:h1&gt;activation_28 (Activation)   (None, 1000, 8)           0&lt;/denchmark-h&gt;

Total params: 601,484
Trainable params: 600,330
Non-trainable params: 1,154
&lt;denchmark-h:hr&gt;&lt;/denchmark-h&gt;

WARNING:tensorflow:From /usr/local/lib/python3.6/dist-packages/tensorflow_core/python/ops/math_grad.py:1424: where (from tensorflow.python.ops.array_ops) is deprecated and will be removed in a future version.
Instructions for updating:
Use tf.where in 2.0, which has the same broadcast rule as np.where
…
