…
produce (REQUIRED)</denchmark-h>\n \n Input:\n <denchmark-code>import torch\n import cv2\n \n device = torch.device('cuda')\n model = torch.hub.load('ultralytics/yolov5', 'yolov5l', pretrained=True).fuse().autoshape().eval().to(device)\n image_path = 'data/images/bus.jpg'\n img = cv2.imread(image_path)\n r = model(img)\n </denchmark-code>\n \n Output:\n <denchmark-code>Using cache found in /home/appuser/.cache/torch/hub/ultralytics_yolov5_master\n \n                  from  n    params  module                                  arguments                     \n   0                -1  1      7040  models.common.Focus                     [3, 64, 3]                    \n   1                -1  1     73984  models.common.Conv                      [64, 128, 3, 2]               \n   2                -1  1    161152  models.common.BottleneckCSP             [128, 128, 3]                 \n   3                -1  1    295424  models.common.Conv                      [128, 256, 3, 2]              \n   4                -1  1   1627904  models.common.BottleneckCSP             [256, 256, 9]                 \n   5                -1  1   1180672  models.common.Conv                      [256, 512, 3, 2]              \n   6                -1  1   6499840  models.common.BottleneckCSP             [512, 512, 9]                 \n   7                -1  1   4720640  models.common.Conv                      [512, 1024, 3, 2]             \n   8                -1  1   2624512  models.common.SPP                       [1024, 1024, [5, 9, 13]]      \n   9                -1  1  10234880  models.common.BottleneckCSP             [1024, 1024, 3, False]        \n  10                -1  1    525312  models.common.Conv                      [1024, 512, 1, 1]             \n  11                -1  1         0  torch.nn.modules.upsampling.Upsample    [None, 2, 'nearest']          \n  12           [-1, 6]  1         0  models.common.Concat                    [1]                           \n  13                -1  1   2823680  models.common.BottleneckCSP             [1024, 512, 3, False]         \n  14                -1  1    131584  models.common.Conv                      [512, 256, 1, 1]              \n  15                -1  1         0  torch.nn.modules.upsampling.Upsample    [None, 2, 'nearest']          \n  16           [-1, 4]  1         0  models.common.Concat                    [1]                           \n  17                -1  1    707328  models.common.BottleneckCSP             [512, 256, 3, False]          \n  18                -1  1    590336  models.common.Conv                      [256, 256, 3, 2]              \n  19          [-1, 14]  1         0  models.common.Concat                    [1]                           \n  20                -1  1   2561536  models.common.BottleneckCSP             [512, 512, 3, False]          \n  21                -1  1   2360320  models.common.Conv                      [512, 512, 3, 2]              \n  22          [-1, 10]  1         0  models.common.Concat                    [1]                           \n  23                -1  1  10234880  models.common.BottleneckCSP             [1024, 1024, 3, False]        \n  24      [17, 20, 23]  1    457725  models.yolo.Detect                      [80, [[10, 13, 16, 30, 33, 23], [30, 61, 62, 45, 59, 119], [116, 90, 156, 198, 373, 326]], [256, 512, 1024]]\n Model Summary: 499 layers, 47818749 parameters, 47818749 gradients\n \n Fusing layers... \n Model Summary: 400 layers, 47790077 parameters, 47790077 gradients\n Adding autoShape... 
…
