…
device='', epochs=300, evolve=False, img_size=[640, 640], multi_scale=False, name='', noautoanchor=False, nosave=False, 
notest=False, rect=False, resume=True, single_cls=False, weights='weights/last.pt')
Using CUDA device0 _CudaDeviceProperties(name='TITAN Xp COLLECTORS EDITION', total_memory=12195MB)
       device1 _CudaDeviceProperties(name='TITAN Xp COLLECTORS EDITION', total_memory=12196MB)

Start Tensorboard with "tensorboard --logdir=runs", view at http://localhost:6006/

          from  n    params  module                                  arguments                     
  0             -1  1      3520  models.common.Focus                     [3, 32, 3]                    
  1             -1  1     18560  models.common.Conv                      [32, 64, 3, 2]                
  2             -1  1     19904  models.common.BottleneckCSP             [64, 64, 1]                   
  3             -1  1     73984  models.common.Conv                      [64, 128, 3, 2]               
  4             -1  1    161152  models.common.BottleneckCSP             [128, 128, 3]                 
  5             -1  1    295424  models.common.Conv                      [128, 256, 3, 2]              
  6             -1  1    641792  models.common.BottleneckCSP             [256, 256, 3]                 
  7             -1  1   1180672  models.common.Conv                      [256, 512, 3, 2]              
  8             -1  1    656896  models.common.SPP                       [512, 512, [5, 9, 13]]        
  9             -1  1   1248768  models.common.BottleneckCSP             [512, 512, 1, False]          
 10             -1  1    131584  models.common.Conv                      [512, 256, 1, 1]              
 11             -1  1         0  torch.nn.modules.upsampling.Upsample    [None, 2, 'nearest']          
 12        [-1, 6]  1         0  models.common.Concat                    [1]                           
 13             -1  1    378624  models.common.BottleneckCSP             [512, 256, 1, False]          
 14             -1  1     33024  models.common.Conv                      [256, 128, 1, 1]              
 15             -1  1         0  torch.nn.modules.upsampling.Upsample    [None, 2, 'nearest']          
 16        [-1, 4]  1         0  models.common.Concat                    [1]                           
 17             -1  1     95104  models.common.BottleneckCSP             [256, 128, 1, False]          
 18             -1  1      9675  torch.nn.modules.conv.Conv2d            [128, 75, 1, 1]               
 19             -2  1    147712  models.common.Conv                      [128, 128, 3, 2]              
 20       [-1, 14]  1         0  models.common.Concat                    [1]                           
 21             -1  1    313088  models.common.BottleneckCSP             [256, 256, 1, False]          
 22             -1  1     19275  torch.nn.modules.conv.Conv2d            [256, 75, 1, 1]               
 23             -2  1    590336  models.common.Conv                      [256, 256, 3, 2]              
 24       [-1, 10]  1         0  models.common.Concat                    [1]                           
 25             -1  1   1248768  models.common.BottleneckCSP             [512, 512, 1, False]          
 26             -1  1     38475  torch.nn.modules.conv.Conv2d            [512, 75, 1, 1]               
 27   [-1, 22, 18]  1         0  models.yolo.Detect                      [20, [[116, 90, 156, 198, 373, 326], [30, 61, 62, 45, 59, 119], [10, 13, 16, 30, 33, 23]]]
Model Summary: 191 layers, 7.30634e+06 parameters, 7.30634e+06 gradients

Optimizer groups: 62 .bias, 70 conv.weight, 59 other
Caching labels /home/ss/data/VOCdevkit/VOC2007/labels.npy (16551 found, 0 missing, 0 empty, 0 duplicate, for 16551 i
…
