…
Namespace(adam=False, batch_size=16, bucket='', cache_images=False, cfg='.\models\yolov5x.yaml', data='./data/coco128.yaml', device='', epochs=10, evolve=False, img_size=[416], multi_scale=False, name='', noautoanchor=False, nosave=False, notest=False, rect=False, resume=False, single_cls=False, weights="''")
Using CPU
Start Tensorboard with "tensorboard --logdir=runs", view at &lt;denchmark-link:http://localhost:6006/&gt;http://localhost:6006/&lt;/denchmark-link&gt;

&lt;denchmark-code&gt;          from  n    params  module                                  arguments
&lt;/denchmark-code&gt;

0             -1  1      8800  models.common.Focus                     [3, 80, 3]
1             -1  1    115520  models.common.Conv                      [80, 160, 3, 2]
2             -1  1    315680  models.common.BottleneckCSP             [160, 160, 4]
3             -1  1    461440  models.common.Conv                      [160, 320, 3, 2]
4             -1  1   3311680  models.common.BottleneckCSP             [320, 320, 12]
5             -1  1   1844480  models.common.Conv                      [320, 640, 3, 2]
6             -1  1  13228160  models.common.BottleneckCSP             [640, 640, 12]
7             -1  1   7375360  models.common.Conv                      [640, 1280, 3, 2]
8             -1  1   4099840  models.common.SPP                       [1280, 1280, [5, 9, 13]]
9             -1  1  20087040  models.common.BottleneckCSP             [1280, 1280, 4, False]
10             -1  1    820480  models.common.Conv                      [1280, 640, 1, 1]
11             -1  1         0  torch.nn.modules.upsampling.Upsample    [None, 2, 'nearest']
12        [-1, 6]  1         0  models.common.Concat                    [1]
13             -1  1   5435520  models.common.BottleneckCSP             [1280, 640, 4, False]
14             -1  1    205440  models.common.Conv                      [640, 320, 1, 1]
15             -1  1         0  torch.nn.modules.upsampling.Upsample    [None, 2, 'nearest']
16        [-1, 4]  1         0  models.common.Concat                    [1]
17             -1  1   1360960  models.common.BottleneckCSP             [640, 320, 4, False]
18             -1  1      7704  torch.nn.modules.conv.Conv2d            [320, 24, 1, 1]
19             -2  1    922240  models.common.Conv                      [320, 320, 3, 2]
20       [-1, 14]  1         0  models.common.Concat                    [1]
21             -1  1   5025920  models.common.BottleneckCSP             [640, 640, 4, False]
22             -1  1     15384  torch.nn.modules.conv.Conv2d            [640, 24, 1, 1]
23             -2  1   3687680  models.common.Conv                      [640, 640, 3, 2]
24       [-1, 10]  1         0  models.common.Concat                    [1]
25             -1  1  20087040  models.common.BottleneckCSP             [1280, 1280, 4, False]
26             -1  1     30744  torch.nn.modules.conv.Conv2d            [1280, 24, 1, 1]
27   [-1, 22, 18]  1         0  models.yolo.Detect                      [3, [[116, 90, 156, 198, 373, 326], [30, 61, 62, 45, 59, 119], [10, 13, 16, 30, 33, 23]]]
Model Summary: 407 layers, 8.84471e+07 parameters, 8.84471e+07 gradients
Optimizer groups: 134 .bias, 142 conv.weight, 131 other
% Total    % Received % Xferd  Average Speed   Time    Time     Time  Current
Dload  Upload   Total   Spent    Left  Speed
…
