…
Namespace(adam=False, batch_size=16, bucket='', cache_images=False, cfg='./models/yolov5s.yaml', data='data/coco128.yaml', device='0', epochs=3, evolve=False, img_size=[320], multi_scale=False, name='test', noautoanchor=False, nosave=False, notest=False, rect=False, resume=False, single_cls=False, weights='yolov5s.pt')
Using CUDA device0 _CudaDeviceProperties(name='Tesla P100-PCIE-16GB', total_memory=16280MB)

2020-06-19 16:38:28.749236: I tensorflow/stream_executor/platform/default/dso_loader.cc:44] Successfully opened dynamic library libcudart.so.10.1
Start Tensorboard with "tensorboard --logdir=runs", view at http://localhost:6006/

              from  n    params  module                                  arguments                     
  0             -1  1      3520  models.common.Focus                     [3, 32, 3]                    
  1             -1  1     18560  models.common.Conv                      [32, 64, 3, 2]                
  2             -1  1     20672  models.common.Bottleneck                [64, 64]                      
  3             -1  1     73984  models.common.Conv                      [64, 128, 3, 2]               
  4             -1  1    161152  models.common.BottleneckCSP             [128, 128, 3]                 
  5             -1  1    295424  models.common.Conv                      [128, 256, 3, 2]              
  6             -1  1    641792  models.common.BottleneckCSP             [256, 256, 3]                 
  7             -1  1   1180672  models.common.Conv                      [256, 512, 3, 2]              
  8             -1  1    656896  models.common.SPP                       [512, 512, [5, 9, 13]]        
  9             -1  1   1905152  models.common.BottleneckCSP             [512, 512, 2]                 
 10             -1  1   1248768  models.common.BottleneckCSP             [512, 512, 1, False]          
 11             -1  1    130815  torch.nn.modules.conv.Conv2d            [512, 255, 1, 1]              
 12             -2  1         0  torch.nn.modules.upsampling.Upsample    [None, 2, 'nearest']          
 13        [-1, 6]  1         0  models.common.Concat                    [1]                           
 14             -1  1    197120  models.common.Conv                      [768, 256, 1, 1]              
 15             -1  1    313088  models.common.BottleneckCSP             [256, 256, 1, False]          
 16             -1  1     65535  torch.nn.modules.conv.Conv2d            [256, 255, 1, 1]              
 17             -2  1         0  torch.nn.modules.upsampling.Upsample    [None, 2, 'nearest']          
 18        [-1, 4]  1         0  models.common.Concat                    [1]                           
 19             -1  1     49408  models.common.Conv                      [384, 128, 1, 1]              
 20             -1  1     78720  models.common.BottleneckCSP             [128, 128, 1, False]          
 21             -1  1     32895  torch.nn.modules.conv.Conv2d            [128, 255, 1, 1]              
 22   [-1, 16, 11]  1         0  models.yolo.Detect                      [80, [[10, 13, 16, 30, 33, 23], [30, 61, 62, 45, 59, 119], [116, 90, 156, 198, 373, 326]]]
Model Summary: 165 layers, 7.07417e+06 parameters, 7.07417e+06 gradients

Optimizer groups: 54 .bias, 60 conv.weight, 51 other
  % Total    % Received % Xferd  Average Speed   Time    Time     Time  Current
…
