…
[gpu63:0/8] 2020-05-21 16:48:23,095 (abs_task:1060) INFO: pytorch.version=1.2.0a0+8554416, cuda.available=True, cudnn.version=7402, cudnn.benchmark=False, cudnn.deterministic=False
[gpu63:0/8] 2020-05-21 16:48:23,100 (abs_task:1061) INFO: Model:
ESPnetASRModel(
(specaug): SpecAug(
(time_warp): TimeWarp(window=5, mode=bicubic)
(freq_mask): MaskAlongAxis(mask_width_range=(0, 30), num_mask=2, axis=freq)
(time_mask): MaskAlongAxis(mask_width_range=(0, 40), num_mask=2, axis=time)
)
(normalize): GlobalMVN(stats_file=exp-spec-mean/asr_stats/train/feats_stats.npz, norm_means=True, norm_vars=True)
(encoder): TransformerEncoder(
(embed): Conv2dSubsampling(
(conv): Sequential(
(0): Conv2d(1, 256, kernel_size=(3, 3), stride=(2, 2))
(1): ReLU()
(2): Conv2d(256, 256, kernel_size=(3, 3), stride=(2, 2))
(3): ReLU()
)
(out): Sequential(
(0): Linear(in_features=5120, out_features=256, bias=True)
(1): PositionalEncoding(
(dropout): Dropout(p=0.1, inplace=False)
)
)
)
(encoders): MultiSequential(
(0): EncoderLayer(
(self_attn): MultiHeadedAttention(
(linear_q): Linear(in_features=256, out_features=256, bias=True)
(linear_k): Linear(in_features=256, out_features=256, bias=True)
(linear_v): Linear(in_features=256, out_features=256, bias=True)
(linear_out): Linear(in_features=256, out_features=256, bias=True)
(dropout): Dropout(p=0.0, inplace=False)
)
(feed_forward): PositionwiseFeedForward(
(w_1): Linear(in_features=256, out_features=2048, bias=True)
(w_2): Linear(in_features=2048, out_features=256, bias=True)
(dropout): Dropout(p=0.1, inplace=False)
)
(norm1): LayerNorm((256,), eps=1e-12, elementwise_affine=True)
(norm2): LayerNorm((256,), eps=1e-12, elementwise_affine=True)
(dropout): Dropout(p=0.1, inplace=False)
)
(1): EncoderLayer(
(self_attn): MultiHeadedAttention(
(linear_q): Linear(in_features=256, out_features=256, bias=True)
(linear_k): Linear(in_features=256, out_features=256, bias=True)
(linear_v): Linear(in_features=256, out_features=256, bias=True)
(linear_out): Linear(in_features=256, out_features=256, bias=True)
(dropout): Dropout(p=0.0, inplace=False)
)
(feed_forward): PositionwiseFeedForward(
(w_1): Linear(in_features=256, out_features=2048, bias=True)
(w_2): Linear(in_features=2048, out_features=256, bias=True)
(dropout): Dropout(p=0.1, inplace=False)
)
(norm1): LayerNorm((256,), eps=1e-12, elementwise_affine=True)
(norm2): LayerNorm((256,), eps=1e-12, elementwise_affine=True)
(dropout): Dropout(p=0.1, inplace=False)
)
(2): EncoderLayer(
(self_attn): MultiHeadedAttention(
(linear_q): Linear(in_features=256, out_features=256, bias=True)
(linear_k): Linear(in_features=256, out_features=256, bias=True)
(linear_v): Linear(in_features=256, out_features=256, bias=True)
(linear_out): Linear(in_features=256, out_features=256, bias=True)
(dropout): Dropout(p=0.0, inplace=False)
)
(feed_forward): PositionwiseFeedForward(
(w_1): Linear(in_features=256, out_features=2048, bias=True)
(w_2): Linear(in_features=2048, out_features=256, bias=True)
(dropout): Dropout(p=0.1, inplace=False)
)
(norm1): LayerNorm((256,), eps=1e-12, elementwise_affine=True)
(norm2): LayerNorm((256,), eps=1e-12, elementwise_affine=True)
(dropout): Dropout(p=0.1, inplace=False)
)
(3): EncoderLayer(
(self_attn): MultiHeadedAttention(
(linear_q): Linear(in_features=256, out_features=256, bias=True)
(linear_k): Linear(in_features=256, out_features=256, bias=True)
(linear_v): Linear(in_features=256, out_features=256, bias=True)
(linear_out): Linear(in_features=256, out_features=256, bias=True)
(dropout): Dropout(p=0.0, inplace=False)
)
(feed_forward): PositionwiseFeedForward(
(w_1): Linear(in_features=256, out_features=2048, bias=True)
(w_2): Linear(in_features=2048, out_features=256, bias=True)
(dropout): Dropout(p=0.1, inplace=False)
)
(norm1): LayerNorm((256,), eps=1e-12, elementwise_affine=True)
(norm2): LayerNorm((256,), eps=1e-12, elementwise_affine=True)
(dropout): Dropout(p=0.1, inplace=False)
)
(4): EncoderLayer(
(self_attn): MultiHeadedAttention(
(linear_q): Linear(in_features=256, out_features=256, bias=True)
(linear_k): Linear(in_features=256, out_features=256, bias=True)
(linear_v): Linear(in_features=256, out_features=256, bias=True)
(linear_out): Linear(in_features=256, out_features=256, bias=True)
(dropout): Dropout(p=0.0, inplace=False)
)
(feed_forward): PositionwiseFeedForward(
(w_1): Linear(in_features=256, out_features=2048, bias=True)
(w_2): Linear(in_features=2048, out_features=256, bias=True)
(dropout): Dropout(p=0.1, inplace=False)
)
(norm1): LayerNorm((256,), eps=1e-12, elementwise_affine=True)
(norm2): LayerNorm((256,), eps=1e-12, elementwise_affine=True)
(dropout): Dropout(p=0.1, inplace=False)
)
(5): EncoderLayer(
(self_attn): MultiHeadedAttention(
(linear_q): Linear(in_features=256, out_features=256, bias=True)
(linear_k): Linear(in_features=256, out_features=256, bias=True)
(linear_v): Linear(in_features=256, out_features=256, bias=True)
(linear_out): Linear(in_features=256, out_features=256, bias=True)
(dropout): Dropout(p=0.0, inplace=False)
)
(feed_forward): PositionwiseFeedForward(
(w_1): Linear(in_features=256, out_features=2048, bias=True)
(w_2): Linear(in_features=2048, out_features=256, bias=True)
(dropout): Dropout(p=0.1, inplace=False)
)
(norm1): LayerNorm((256,), eps=1e-12, elementwise_affine=True)
(norm2): LayerNorm((256,), eps=1e-12, elementwise_affine=True)
(dropout): Dropout(p=0.1, inplace=False)
)
(6): EncoderLayer(
(self_attn): MultiHeadedAttention(
(linear_q): Linear(in_features=256, out_features=256, bias=True)
(linear_k): Linear(in_features=256, out_features=256, bias=True)
(linear_v): Linear(in_features=256, out_features=256, bias=True)
(linear_out): Linear(in_features=256, out_features=256, bias=True)
(dropout): Dropout(p=0.0, inplace=False)
)
(feed_forward): PositionwiseFeedForward(
(w_1): Linear(in_features=256, out_features=2048, bias=True)
(w_2): Linear(in_features=2048, out_features=256, bias=True)
(dropout): Dropout(p=0.1, inplace=False)
)
(norm1): LayerNorm((256,), eps=1e-12, elementwise_affine=True)
(norm2): LayerNorm((256,), eps=1e-12, elementwise_affine=True)
(dropout): Dropout(p=0.1, inplace=False)
)
(7): EncoderLayer(
(self_attn): MultiHeadedAttention(
(linear_q): Linear(in_features=256, out_features=256, bias=True)
(linear_k): Linear(in_features=256, out_features=256, bias=True)
(linear_v): Linear(in_features=256, out_features=256, bias=True)
(linear_out): Linear(in_features=256, out_features=256, bias=True)
(dropout): Dropout(p=0.0, inplace=False)
)
(feed_forward): PositionwiseFeedForward(
(w_1): Linear(in_features=256, out_features=2048, bias=True)
(w_2): Linear(in_features=2048, out_features=256, bias=True)
(dropout): Dropout(p=0.1, inplace=False)
)
(norm1): LayerNorm((256,), eps=1e-12, elementwise_affine=True)
(norm2): LayerNorm((256,), eps=1e-12, elementwise_affine=True)
(dropout): Dropout(p=0.1, inplace=False)
)
(8): EncoderLayer(
(self_attn): MultiHeadedAttention(
(linear_q): Linear(in_features=256, out_features=256, bias=True)
(linear_k): Linear(in_features=256, out_features=256, bias=True)
(linear_v): Linear(in_features=256, out_features=256, bias=True)
(linear_out): Linear(in_features=256, out_features=256, bias=True)
(dropout): Dropout(p=0.0, inplace=False)
)
(feed_forward): PositionwiseFeedForward(
(w_1): Linear(in_features=256, out_features=2048, bias=True)
(w_2): Linear(in_features=2048, out_features=256, bias=True)
(dropout): Dropout(p=0.1, inplace=False)
)
(norm1): LayerNorm((256,), eps=1e-12, elementwise_affine=True)
(norm2): LayerNorm((256,), eps=1e-12, elementwise_affine=True)
(dropout): Dropout(p=0.1, inplace=False)
)
(9): EncoderLayer(
(self_attn): MultiHeadedAttention(
(linear_q): Linear(in_features=256, out_features=256, bias=True)
(linear_k): Linear(in_features=256, out_features=256, bias=True)
(linear_v): Linear(in_features=256, out_features=256, bias=True)
(linear_out): Linear(in_features=256, out_features=256, bias=True)
(dropout): Dropout(p=0.0, inplace=False)
)
(feed_forward): PositionwiseFeedForward(
(w_1): Linear(in_features=256, out_features=2048, bias=True)
(w_2): Linear(in_features=2048, out_features=256, bias=True)
(dropout): Dropout(p=0.1, inplace=False)
)
(norm1): LayerNorm((256,), eps=1e-12, elementwise_affine=True)
(norm2): LayerNorm((256,), eps=1e-12, elementwise_affine=True)
(dropout): Dropout(p=0.1, inplace=False)
)
(10): EncoderLayer(
(self_attn): MultiHeadedAttention(
(linear_q): Linear(in_features=256, out_features=256, bias=True)
(linear_k): Linear(in_features=256, out_features=256, bias=True)
(linear_v): Linear(in_features=256, out_features=256, bias=True)
(linear_out): Linear(in_features=256, out_features=256, bias=True)
(dropout): Dropout(p=0.0, inplace=False)
)
(feed_forward): PositionwiseFeedForward(
(w_1): Linear(in_features=256, out_features=2048, bias=True)
(w_2): Linear(in_features=2048, out_features=256, bias=True)
(dropout): Dropout(p=0.1, inplace=False)
)
(norm1): LayerNorm((256,), eps=1e-12, elementwise_affine=True)
(norm2): LayerNorm((256,), eps=1e-12, elementwise_affine=True)
(dropout): Dropout(p=0.1, inplace=False)
)
(11): EncoderLayer(
(self_attn): MultiHeadedAttention(
(linear_q): Linear(in_features=256, out_features=256, bias=True)
(linear_k): Linear(in_features=256, out_features=256, bias=True)
(linear_v): Linear(in_features=256, out_features=256, bias=True)
(linear_out): Linear(in_features=256, out_features=256, bias=True)
(dropout): Dropout(p=0.0, inplace=False)
)
(feed_forward): PositionwiseFeedForward(
(w_1): Linear(in_features=256, out_features=2048, bias=True)
(w_2): Linear(in_features=2048, out_features=256, bias=True)
(dropout): Dropout(p=0.1, inplace=False)
)
(norm1): LayerNorm((256,), eps=1e-12, elementwise_affine=True)
(norm2): LayerNorm((256,), eps=1e-12, elementwise_affine=True)
(dropout): Dropout(p=0.1, inplace=False)
)
)
(after_norm): LayerNorm((256,), eps=1e-12, elementwise_affine=True)
)
(decoder): TransformerDecoder(
(embed): Sequential(
(0): Embedding(4233, 256)
(1): PositionalEncoding(
(dropout): Dropout(p=0.1, inplace=False)
)
)
(decoders): MultiSequential(
(0): DecoderLayer(
(self_attn): MultiHeadedAttention(
(linear_q): Linear(in_features=256, out_features=256, bias=True)
(linear_k): Linear(in_features=256, out_features=256, bias=True)
(linear_v): Linear(in_features=256, out_features=256, bias=True)
(linear_out): Linear(in_features=256, out_features=256, bias=True)
(dropout): Dropout(p=0.0, inplace=False)
)
(src_attn): MultiHeadedAttention(
(linear_q): Linear(in_features=256, out_features=256, bias=True)
(linear_k): Linear(in_features=256, out_features=256, bias=True)
(linear_v): Linear(in_features=256, out_features=256, bias=True)
(linear_out): Linear(in_features=256, out_features=256, bias=True)
(dropout): Dropout(p=0.0, inplace=False)
)
(feed_forward): PositionwiseFeedForward(
(w_1): Linear(in_features=256, out_features=2048, bias=True)
(w_2): Linear(in_features=2048, out_features=256, bias=True)
(dropout): Dropout(p=0.1, inplace=False)
)
(norm1): LayerNorm((256,), eps=1e-12, elementwise_affine=True)
(norm2): LayerNorm((256,), eps=1e-12, elementwise_affine=True)
(norm3): LayerNorm((256,), eps=1e-12, elementwise_affine=True)
(dropout): Dropout(p=0.1, inplace=False)
)
(1): DecoderLayer(
(self_attn): MultiHeadedAttention(
(linear_q): Linear(in_features=256, out_features=256, bias=True)
(linear_k): Linear(in_features=256, out_features=256, bias=True)
(linear_v): Linear(in_features=256, out_features=256, bias=True)
(linear_out): Linear(in_features=256, out_features=256, bias=True)
(dropout): Dropout(p=0.0, inplace=False)
)
(src_attn): MultiHeadedAttention(
(linear_q): Linear(in_features=256, out_features=256, bias=True)
(linear_k): Linear(in_features=256, out_features=256, bias=True)
(linear_v): Linear(in_features=256, out_features=256, bias=True)
(linear_out): Linear(in_features=256, out_features=256, bias=True)
(dropout): Dropout(p=0.0, inplace=False)
)
(feed_forward): PositionwiseFeedForward(
(w_1): Linear(in_features=256, out_features=2048, bias=True)
(w_2): Linear(in_features=2048, out_features=256, bias=True)
(dropout): Dropout(p=0.1, inplace=False)
)
(norm1): LayerNorm((256,), eps=1e-12, elementwise_affine=True)
(norm2): LayerNorm((256,), eps=1e-12, elementwise_affine=True)
(norm3): LayerNorm((256,), eps=1e-12, elementwise_affine=True)
(dropout): Dropout(p=0.1, inplace=False)
)
(2): DecoderLayer(
(self_attn): MultiHeadedAttention(
(linear_q): Linear(in_features=256, out_features=256, bias=True)
(linear_k): Linear(in_features=256, out_features=256, bias=True)
(linear_v): Linear(in_features=256, out_features=256, bias=True)
(linear_out): Linear(in_features=256, out_features=256, bias=True)
(dropout): Dropout(p=0.0, inplace=False)
)
(src_attn): MultiHeadedAttention(
(linear_q): Linear(in_features=256, out_features=256, bias=True)
(linear_k): Linear(in_features=256, out_features=256, bias=True)
(linear_v): Linear(in_features=256, out_features=256, bias=True)
(linear_out): Linear(in_features=256, out_features=256, bias=True)
(dropout): Dropout(p=0.0, inplace=False)
)
(feed_forward): PositionwiseFeedForward(
(w_1): Linear(in_features=256, out_features=2048, bias=True)
(w_2): Linear(in_features=2048, out_features=256, bias=True)
(dropout): Dropout(p=0.1, inplace=False)
)
(norm1): LayerNorm((256,), eps=1e-12, elementwise_affine=True)
(norm2): LayerNorm((256,), eps=1e-12, elementwise_affine=True)
(norm3): LayerNorm((256,), eps=1e-12, elementwise_affine=True)
(dropout): Dropout(p=0.1, inplace=False)
)
(3): DecoderLayer(
(self_attn): MultiHeadedAttention(
(linear_q): Linear(in_features=256, out_features=256, bias=True)
(linear_k): Linear(in_features=256, out_features=256, bias=True)
(linear_v): Linear(in_features=256, out_features=256, bias=True)
(linear_out): Linear(in_features=256, out_features=256, bias=True)
(dropout): Dropout(p=0.0, inplace=False)
)
(src_attn): MultiHeadedAttention(
(linear_q): Linear(in_features=256, out_features=256, bias=True)
(linear_k): Linear(in_features=256, out_features=256, bias=True)
(linear_v): Linear(in_features=256, out_features=256, bias=True)
(linear_out): Linear(in_features=256, out_features=256, bias=True)
(dropout): Dropout(p=0.0, inplace=False)
)
(feed_forward): PositionwiseFeedForward(
(w_1): Linear(in_features=256, out_features=2048, bias=True)
(w_2): Linear(in_features=2048, out_features=256, bias=True)
(dropout): Dropout(p=0.1, inplace=False)
)
(norm1): LayerNorm((256,), eps=1e-12, elementwise_affine=True)
(norm2): LayerNorm((256,), eps=1e-12, elementwise_affine=True)
(norm3): LayerNorm((256,), eps=1e-12, elementwise_affine=True)
(dropout): Dropout(p=0.1, inplace=False)
)
(4): DecoderLayer(
(self_attn): MultiHeadedAttention(
(linear_q): Linear(in_features=256, out_features=256, bias=True)
(linear_k): Linear(in_features=256, out_features=256, bias=True)
(linear_v): Linear(in_features=256, out_features=256, bias=True)
(linear_out): Linear(in_features=256, out_features=256, bias=True)
(dropout): Dropout(p=0.0, inplace=False)
)
(src_attn): MultiHeadedAttention(
(linear_q): Linear(in_features=256, out_features=256, bias=True)
(linear_k): Linear(in_features=256, out_features=256, bias=True)
(linear_v): Linear(in_features=256, out_features=256, bias=True)
(linear_out): Linear(in_features=256, out_features=256, bias=True)
(dropout): Dropout(p=0.0, inplace=False)
)
(feed_forward): PositionwiseFeedForward(
(w_1): Linear(in_features=256, out_features=2048, bias=True)
(w_2): Linear(in_features=2048, out_features=256, bias=True)
(dropout): Dropout(p=0.1, inplace=False)
)
(norm1): LayerNorm((256,), eps=1e-12, elementwise_affine=True)
(norm2): LayerNorm((256,), eps=1e-12, elementwise_affine=True)
(norm3): LayerNorm((256,), eps=1e-12, elementwise_affine=True)
(dropout): Dropout(p=0.1, inplace=False)
)
(5): DecoderLayer(
(self_attn): MultiHeadedAttention(
(linear_q): Linear(in_features=256, out_features=256, bias=True)
(linear_k): Linear(in_features=256, out_features=256, bias=True)
(linear_v): Linear(in_features=256, out_features=256, bias=True)
(linear_out): Linear(in_features=256, out_features=256, bias=True)
(dropout): Dropout(p=0.0, inplace=False)
)
(src_attn): MultiHeadedAttention(
(linear_q): Linear(in_features=256, out_features=256, bias=True)
(linear_k): Linear(in_features=256, out_features=256, bias=True)
(linear_v): Linear(in_features=256, out_features=256, bias=True)
(linear_out): Linear(in_features=256, out_features=256, bias=True)
(dropout): Dropout(p=0.0, inplace=False)
)
(feed_forward): PositionwiseFeedForward(
(w_1): Linear(in_features=256, out_features=2048, bias=True)
(w_2): Linear(in_features=2048, out_features=256, bias=True)
(dropout): Dropout(p=0.1, inplace=False)
)
(norm1): LayerNorm((256,), eps=1e-12, elementwise_affine=True)
(norm2): LayerNorm((256,), eps=1e-12, elementwise_affine=True)
(norm3): LayerNorm((256,), eps=1e-12, elementwise_affine=True)
(dropout): Dropout(p=0.1, inplace=False)
)
)
(after_norm): LayerNorm((256,), eps=1e-12, elementwise_affine=True)
(output_layer): Linear(in_features=256, out_features=4233, bias=True)
)
(ctc): CTC(
(ctc_lo): Linear(in_features=256, out_features=4233, bias=True)
(ctc_loss): CTCLoss()
)
(criterion_att): LabelSmoothingLoss(
(criterion): KLDivLoss()
)
)
[gpu63:0/8] 2020-05-21 16:48:23,100 (abs_task:1064) INFO: Optimizer:
Adam (
Parameter Group 0
amsgrad: False
betas: (0.9, 0.999)
eps: 1e-08
initial_lr: 10.0
lr: 1.5811388300841896e-07
weight_decay: 0
)'
The training loss is get higher than training without specaug.
…
