…
What about ./build/tools/caffe time -model models/bvlc_alexnet/deploy.prototxt -gpu=0 though?
		</comment>
		<comment id='6' author='wertig0n' date='2016-05-17T19:11:40Z'>
		That yields a bit worse results, it core dumps. Might've found the problem, the solution eludes me a bit though. :)
&lt;denchmark-code&gt;I0517 21:07:49.670588  9497 caffe.cpp:347] Use GPU with device ID 0
I0517 21:07:53.913576  9497 net.cpp:53] Initializing net from parameters: 
name: "AlexNet"
state {
  phase: TRAIN
}
layer {
  name: "data"
  type: "Input"
  top: "data"
  input_param {
    shape {
      dim: 10
      dim: 3
      dim: 227
      dim: 227
    }
  }
}
layer {
  name: "conv1"
  type: "Convolution"
  bottom: "data"
  top: "conv1"
  param {
    lr_mult: 1
    decay_mult: 1
  }
  param {
    lr_mult: 2
    decay_mult: 0
  }
  convolution_param {
    num_output: 96
    kernel_size: 11
    stride: 4
  }
}
layer {
  name: "relu1"
  type: "ReLU"
  bottom: "conv1"
  top: "conv1"
}
layer {
  name: "norm1"
  type: "LRN"
  bottom: "conv1"
  top: "norm1"
  lrn_param {
    local_size: 5
    alpha: 0.0001
    beta: 0.75
  }
}
layer {
  name: "pool1"
  type: "Pooling"
  bottom: "norm1"
  top: "pool1"
  pooling_param {
    pool: MAX
    kernel_size: 3
    stride: 2
  }
}
layer {
  name: "conv2"
  type: "Convolution"
  bottom: "pool1"
  top: "conv2"
  param {
    lr_mult: 1
    decay_mult: 1
  }
  param {
    lr_mult: 2
    decay_mult: 0
  }
  convolution_param {
    num_output: 256
    pad: 2
    kernel_size: 5
    group: 2
  }
}
layer {
  name: "relu2"
  type: "ReLU"
  bottom: "conv2"
  top: "conv2"
}
layer {
  name: "norm2"
  type: "LRN"
  bottom: "conv2"
  top: "norm2"
  lrn_param {
    local_size: 5
    alpha: 0.0001
    beta: 0.75
  }
}
layer {
  name: "pool2"
  type: "Pooling"
  bottom: "norm2"
  top: "pool2"
  pooling_param {
    pool: MAX
    kernel_size: 3
    stride: 2
  }
}
layer {
  name: "conv3"
  type: "Convolution"
  bottom: "pool2"
  top: "conv3"
  param {
    lr_mult: 1
    decay_mult: 1
  }
  param {
    lr_mult: 2
    decay_mult: 0
  }
  convolution_param {
    num_output: 384
    pad: 1
    kernel_size: 3
  }
}
layer {
  name: "relu3"
  type: "ReLU"
  bottom: "conv3"
  top: "conv3"
}
layer {
  name: "conv4"
  type: "Convolution"
  bottom: "conv3"
  top: "conv4"
  param {
    lr_mult: 1
    decay_mult: 1
  }
  param {
    lr_mult: 2
    decay_mult: 0
  }
  convolution_param {
    num_output: 384
    pad: 1
    kernel_size: 3
    group: 2
  }
}
layer {
  name: "relu4"
  type: "ReLU"
  bottom: "conv4"
  top: "conv4"
}
layer {
  name: "conv5"
  type: "Convolution"
  bottom: "conv4"
  top: "conv5"
  param {
    lr_mult: 1
    decay_mult: 1
  }
  param {
    lr_mult: 2
    decay_mult: 0
  }
  convolution_param {
    num_output: 256
    pad: 1
    kernel_size: 3
    group: 2
  }
}
layer {
  name: "relu5"
  type: "ReLU"
  bottom: "conv5"
  top: "conv5"
}
layer {
  name: "pool5"
  type: "Pooling"
  bottom: "conv5"
  top: "pool5"
  pooling_param {
    pool: MAX
    kernel_size: 3
    stride: 2
  }
}
layer {
  name: "fc6"
  type: "InnerProduct"
  bottom: "pool5"
  top: "fc6"
  param {
    lr_mult: 1
    decay_mult: 1
  }
  param {
    lr_mult: 2
    decay_mult: 0
  }
  inner_product_param {
    num_output: 4096
  }
}
layer {
  name: "relu6"
  type: "ReLU"
  bottom: "fc6"
  top: "fc6"
}
layer {
  name: "drop6"
  type: "Dropout"
  bottom: "fc6"
  top: "fc6"
  dropout_param {
    dropout_ratio: 0.5
  }
}
layer {
  name: "fc7"
  type: "InnerProduct"
  bottom: "fc6"
  top: "fc7"
  param {
    lr_mult: 1
    decay_mult: 1
  }
  param {
    lr_mult: 2
    decay_mult: 0
  }
  inner_product_param {
    num_output: 4096
  }
}
layer {
  name: "relu7"
  type: "ReLU"
  bottom: "fc7"
  top: "fc7"
}
layer {
  name: "drop7"
  type: "Dropout"
  bottom: "fc7"
  top: "fc7"
  dropout_param {
    dropout_ratio: 0.5
  }
}
layer {
  name: "fc8"
  type: "InnerProduct"
  bottom: "fc7"
  top: "fc8"
  param {
    lr_mult: 1
    decay_mult: 1
  }
  param {
    lr_mult: 2
    decay_mult: 0
  }
  inner_product_param {
    num_output: 1000
  }
}
layer {
  name: "prob"
  type: "Softmax"
  bottom: "fc8"
  top: "prob"
}
I0517 21:07:53.914641  9497 layer_factory.hpp:78] Creating layer data
I0517 21:07:53.914670  9497 net.cpp:101] Creating Layer data
I0517 21:07:53.914685  9497 net.cpp:431] data -&gt; data
I0517 21:07:53.914742  9497 net.cpp:152] Setting up data
I0517 21:07:53.914764  9497 net.cpp:160] Top shape: 10 3 227 227 (1545870)
I0517 21:07:53.914782  9497 layer_factory.hpp:78] Creating layer conv1
I0517 21:07:53.914834  9497 net.cpp:101] Creating Layer conv1
I0517 21:07:53.914849  9497 net.cpp:462] conv1 &lt;- data
I0517 21:07:53.914865  9497 net.cpp:431] conv1 -&gt; conv1
I0517 21:07:53.914988  9497 net.cpp:152] Setting up conv1
I0517 21:07:53.915004  9497 net.cpp:160] Top shape: 10 96 55 55 (2904000)
I0517 21:07:53.915030  9497 layer_factory.hpp:78] Creating layer relu1
I0517 21:07:53.915045  9497 net.cpp:101] Creating Layer relu1
I0517 21:07:53.915056  9497 net.cpp:462] relu1 &lt;- conv1
I0517 21:07:53.915071  9497 net.cpp:418] relu1 -&gt; conv1 (in-place)
I0517 21:07:53.915086  9497 net.cpp:152] Setting up relu1
I0517 21:07:53.915099  9497 net.cpp:160] Top shape: 10 96 55 55 (2904000)
I0517 21:07:53.915113  9497 layer_factory.hpp:78] Creating layer norm1
I0517 21:07:53.915127  9497 net.cpp:101] Creating Layer norm1
I0517 21:07:53.915139  9497 net.cpp:462] norm1 &lt;- conv1
I0517 21:07:53.915153  9497 net.cpp:431] norm1 -&gt; norm1
I0517 21:07:53.915177  9497 net.cpp:152] Setting up norm1
I0517 21:07:53.915192  9497 net.cpp:160] Top shape: 10 96 55 55 (2904000)
I0517 21:07:53.915206  9497 layer_factory.hpp:78] Creating layer pool1
I0517 21:07:53.915222  9497 net.cpp:101] Creating Layer pool1
I0517 21:07:53.915235  9497 net.cpp:462] pool1 &lt;- norm1
I0517 21:07:53.915248  9497 net.cpp:431] pool1 -&gt; pool1
I0517 21:07:53.915297  9497 net.cpp:152] Setting up pool1
I0517 21:07:53.915312  9497 net.cpp:160] Top shape: 10 96 27 27 (699840)
I0517 21:07:53.915326  9497 layer_factory.hpp:78] Creating layer conv2
I0517 21:07:53.915343  9497 net.cpp:101] Creating Layer conv2
I0517 21:07:53.915355  9497 net.cpp:462] conv2 &lt;- pool1
I0517 21:07:53.915370  9497 net.cpp:431] conv2 -&gt; conv2
I0517 21:07:53.915968  9497 net.cpp:152] Setting up conv2
I0517 21:07:53.915992  9497 net.cpp:160] Top shape: 10 256 27 27 (1866240)
I0517 21:07:53.916014  9497 layer_factory.hpp:78] Creating layer relu2
I0517 21:07:53.916029  9497 net.cpp:101] Creating Layer relu2
I0517 21:07:53.916041  9497 net.cpp:462] relu2 &lt;- conv2
I0517 21:07:53.916055  9497 net.cpp:418] relu2 -&gt; conv2 (in-place)
I0517 21:07:53.916070  9497 net.cpp:152] Setting up relu2
I0517 21:07:53.916084  9497 net.cpp:160] Top shape: 10 256 27 27 (1866240)
I0517 21:07:53.916097  9497 layer_factory.hpp:78] Creating layer norm2
I0517 21:07:53.916112  9497 net.cpp:101] Creating Layer norm2
I0517 21:07:53.916123  9497 net.cpp:462] norm2 &lt;- conv2
I0517 21:07:53.916137  9497 net.cpp:431] norm2 -&gt; norm2
I0517 21:07:53.916157  9497 net.cpp:152] Setting up norm2
I0517 21:07:53.916170  9497 net.cpp:160] Top shape: 10 256 27 27 (1866240)
I0517 21:07:53.916187  9497 layer_factory.hpp:78] Creating layer pool2
I0517 21:07:53.916203  9497 net.cpp:101] Creating Layer pool2
I0517 21:07:53.916214  9497 net.cpp:462] pool2 &lt;- norm2
I0517 21:07:53.916229  9497 net.cpp:431] pool2 -&gt; pool2
I0517 21:07:53.916261  9497 net.cpp:152] Setting up pool2
I0517 21:07:53.916276  9497 net.cpp:160] Top shape: 10 256 13 13 (432640)
I0517 21:07:53.916291  9497 layer_factory.hpp:78] Creating layer conv3
I0517 21:07:53.916308  9497 net.cpp:101] Creating Layer conv3
I0517 21:07:53.916321  9497 net.cpp:462] conv3 &lt;- pool2
I0517 21:07:53.916335  9497 net.cpp:431] conv3 -&gt; conv3
I0517 21:07:53.918740  9497 net.cpp:152] Setting up conv3
I0517 21:07:53.918820  9497 net.cpp:160] Top shape: 10 384 13 13 (648960)
I0517 21:07:53.918856  9497 layer_factory.hpp:78] Creating layer relu3
I0517 21:07:53.918875  9497 net.cpp:101] Creating Layer relu3
I0517 21:07:53.918889  9497 net.cpp:462] relu3 &lt;- conv3
I0517 21:07:53.918905  9497 net.cpp:418] relu3 -&gt; conv3 (in-place)
I0517 21:07:53.918922  9497 net.cpp:152] Setting up relu3
I0517 21:07:53.918936  9497 net.cpp:160] Top shape: 10 384 13 13 (648960)
I0517 21:07:53.918953  9497 layer_factory.hpp:78] Creating layer conv4
I0517 21:07:53.918974  9497 net.cpp:101] Creating Layer conv4
I0517 21:07:53.918985  9497 net.cpp:462] conv4 &lt;- conv3
I0517 21:07:53.919001  9497 net.cpp:431] conv4 -&gt; conv4
I0517 21:07:53.921025  9497 net.cpp:152] Setting up conv4
I0517 21:07:53.921082  9497 net.cpp:160] Top shape: 10 384 13 13 (648960)
I0517 21:07:53.921156  9497 layer_factory.hpp:78] Creating layer relu4
I0517 21:07:53.921175  9497 net.cpp:101] Creating Layer relu4
I0517 21:07:53.921186  9497 net.cpp:462] relu4 &lt;- conv4
I0517 21:07:53.921202  9497 net.cpp:418] relu4 -&gt; conv4 (in-place)
I0517 21:07:53.921221  9497 net.cpp:152] Setting up relu4
I0517 21:07:53.921233  9497 net.cpp:160] Top shape: 10 384 13 13 (648960)
I0517 21:07:53.921250  9497 layer_factory.hpp:78] Creating layer conv5
I0517 21:07:53.921270  9497 net.cpp:101] Creating Layer conv5
I0517 21:07:53.921283  9497 net.cpp:462] conv5 &lt;- conv4
I0517 21:07:53.921298  9497 net.cpp:431] conv5 -&gt; conv5
I0517 21:07:53.922582  9497 net.cpp:152] Setting up conv5
I0517 21:07:53.922615  9497 net.cpp:160] Top shape: 10 256 13 13 (432640)
I0517 21:07:53.922639  9497 layer_factory.hpp:78] Creating layer relu5
I0517 21:07:53.922655  9497 net.cpp:101] Creating Layer relu5
I0517 21:07:53.922667  9497 net.cpp:462] relu5 &lt;- conv5
I0517 21:07:53.922680  9497 net.cpp:418] relu5 -&gt; conv5 (in-place)
I0517 21:07:53.922695  9497 net.cpp:152] Setting up relu5
I0517 21:07:53.922708  9497 net.cpp:160] Top shape: 10 256 13 13 (432640)
I0517 21:07:53.922724  9497 layer_factory.hpp:78] Creating layer pool5
I0517 21:07:53.922739  9497 net.cpp:101] Creating Layer pool5
I0517 21:07:53.922751  9497 net.cpp:462] pool5 &lt;- conv5
I0517 21:07:53.922766  9497 net.cpp:431] pool5 -&gt; pool5
I0517 21:07:53.922803  9497 net.cpp:152] Setting up pool5
I0517 21:07:53.922817  9497 net.cpp:160] Top shape: 10 256 6 6 (92160)
I0517 21:07:53.922832  9497 layer_factory.hpp:78] Creating layer fc6
I0517 21:07:53.922854  9497 net.cpp:101] Creating Layer fc6
I0517 21:07:53.922866  9497 net.cpp:462] fc6 &lt;- pool5
I0517 21:07:53.922880  9497 net.cpp:431] fc6 -&gt; fc6
I0517 21:07:54.066718  9497 net.cpp:152] Setting up fc6
I0517 21:07:54.066815  9497 net.cpp:160] Top shape: 10 4096 (40960)
I0517 21:07:54.066866  9497 layer_factory.hpp:78] Creating layer relu6
I0517 21:07:54.066887  9497 net.cpp:101] Creating Layer relu6
I0517 21:07:54.066912  9497 net.cpp:462] relu6 &lt;- fc6
I0517 21:07:54.066927  9497 net.cpp:418] relu6 -&gt; fc6 (in-place)
I0517 21:07:54.066947  9497 net.cpp:152] Setting up relu6
I0517 21:07:54.066964  9497 net.cpp:160] Top shape: 10 4096 (40960)
I0517 21:07:54.066980  9497 layer_factory.hpp:78] Creating layer drop6
I0517 21:07:54.067009  9497 net.cpp:101] Creating Layer drop6
I0517 21:07:54.067023  9497 net.cpp:462] drop6 &lt;- fc6
I0517 21:07:54.067036  9497 net.cpp:418] drop6 -&gt; fc6 (in-place)
I0517 21:07:54.067064  9497 net.cpp:152] Setting up drop6
I0517 21:07:54.067078  9497 net.cpp:160] Top shape: 10 4096 (40960)
I0517 21:07:54.067095  9497 layer_factory.hpp:78] Creating layer fc7
I0517 21:07:54.067111  9497 net.cpp:101] Creating Layer fc7
I0517 21:07:54.067121  9497 net.cpp:462] fc7 &lt;- fc6
I0517 21:07:54.067136  9497 net.cpp:431] fc7 -&gt; fc7
I0517 21:07:54.136657  9497 net.cpp:152] Setting up fc7
I0517 21:07:54.136742  9497 net.cpp:160] Top shape: 10 4096 (40960)
I0517 21:07:54.136790  9497 layer_factory.hpp:78] Creating layer relu7
I0517 21:07:54.136811  9497 net.cpp:101] Creating Layer relu7
I0517 21:07:54.136826  9497 net.cpp:462] relu7 &lt;- fc7
I0517 21:07:54.136842  9497 net.cpp:418] relu7 -&gt; fc7 (in-place)
I0517 21:07:54.136860  9497 net.cpp:152] Setting up relu7
I0517 21:07:54.136873  9497 net.cpp:160] Top shape: 10 4096 (40960)
I0517 21:07:54.136888  9497 layer_factory.hpp:78] Creating layer drop7
I0517 21:07:54.136904  9497 net.cpp:101] Creating Layer drop7
I0517 21:07:54.136916  9497 net.cpp:462] drop7 &lt;- fc7
I0517 21:07:54.136930  9497 net.cpp:418] drop7 -&gt; fc7 (in-place)
I0517 21:07:54.136957  9497 net.cpp:152] Setting up drop7
I0517 21:07:54.136971  9497 net.cpp:160] Top shape: 10 4096 (40960)
I0517 21:07:54.136988  9497 layer_factory.hpp:78] Creating layer fc8
I0517 21:07:54.137003  9497 net.cpp:101] Creating Layer fc8
I0517 21:07:54.137015  9497 net.cpp:462] fc8 &lt;- fc7
I0517 21:07:54.137029  9497 net.cpp:431] fc8 -&gt; fc8
I0517 21:07:54.149531  9497 net.cpp:152] Setting up fc8
I0517 21:07:54.149677  9497 net.cpp:160] Top shape: 10 1000 (10000)
I0517 21:07:54.149727  9497 layer_factory.hpp:78] Creating layer prob
I0517 21:07:54.149750  9497 net.cpp:101] Creating Layer prob
I0517 21:07:54.149763  9497 net.cpp:462] prob &lt;- fc8
I0517 21:07:54.149780  9497 net.cpp:431] prob -&gt; prob
I0517 21:07:54.149811  9497 net.cpp:152] Setting up prob
I0517 21:07:54.149827  9497 net.cpp:160] Top shape: 10 1000 (10000)
I0517 21:07:54.149840  9497 net.cpp:241] prob does not need backward computation.
I0517 21:07:54.149855  9497 net.cpp:241] fc8 does not need backward computation.
I0517 21:07:54.149868  9497 net.cpp:241] drop7 does not need backward computation.
I0517 21:07:54.149883  9497 net.cpp:241] relu7 does not need backward computation.
I0517 21:07:54.149894  9497 net.cpp:241] fc7 does not need backward computation.
…
