…
train_generator = mz.DataGenerator(train_pack_processed, batch_size=32, shuffle=False)
history = model.fit_generator(train_generator, epochs=30, callbacks=[evaluate], workers=30, use_multiprocessing=True)
&lt;/denchmark-code&gt;

The error is below:
&lt;denchmark-code&gt;__________________________________________________________________________________________________
Layer (type)                    Output Shape         Param #     Connected to                     
==================================================================================================
text_left (InputLayer)          (None, 30)           0                                            
__________________________________________________________________________________________________
text_right (InputLayer)         (None, 30)           0                                            
__________________________________________________________________________________________________
embedding (Embedding)           (None, 30, 300)      6938100     text_left[0][0]                  
                                                                 text_right[0][0]                 
__________________________________________________________________________________________________
conv1d_1 (Conv1D)               (None, 30, 128)      115328      embedding[0][0]                  
__________________________________________________________________________________________________
conv1d_2 (Conv1D)               (None, 30, 128)      115328      embedding[1][0]                  
__________________________________________________________________________________________________
max_pooling1d_1 (MaxPooling1D)  (None, 7, 128)       0           conv1d_1[0][0]                   
__________________________________________________________________________________________________
max_pooling1d_2 (MaxPooling1D)  (None, 7, 128)       0           conv1d_2[0][0]                   
__________________________________________________________________________________________________
flatten_1 (Flatten)             (None, 896)          0           max_pooling1d_1[0][0]            
__________________________________________________________________________________________________
flatten_2 (Flatten)             (None, 896)          0           max_pooling1d_2[0][0]            
__________________________________________________________________________________________________
concatenate_1 (Concatenate)     (None, 1792)         0           flatten_1[0][0]                  
                                                                 flatten_2[0][0]                  
__________________________________________________________________________________________________
dropout_1 (Dropout)             (None, 1792)         0           concatenate_1[0][0]              
__________________________________________________________________________________________________
dense_1 (Dense)                 (None, 100)          179300      dropout_1[0][0]                  
__________________________________________________________________________________________________
dense_2 (Dense)                 (None, 1)            101         dense_1[0][0]                    
__________________________________________________________________________________________________
dense_3 (Dense)                 (None, 4)            8           dense_2[0][0]                    
==================================================================================================
Total params: 7,348,165
Trainable params: 410,065
Non-trainable params: 6,938,100
__________________________________________________________________________________________________
2019-03-15 22:10:13.674082: I tensorflow/core/platform/cpu_feature_guard.cc:141] Your CPU supports instructions that this TensorFlow binary was not compiled to use: AVX2 FMA
…
