…
It seems that the below usage is not allowed anymore in datapack.py? I just followed the DRRM turoial:
&lt;denchmark-link:https://github.com/NTMC-Community/MatchZoo/blob/master/tutorials/wikiqa/drmm.ipynb&gt;https://github.com/NTMC-Community/MatchZoo/blob/master/tutorials/wikiqa/drmm.ipynb&lt;/denchmark-link&gt;

&lt;denchmark-code&gt;
________________________________________________________________________________________
Layer (type)                    Output Shape         Param #     Connected to
==================================================================================================
text_left (InputLayer)          (None, 10)           0
__________________________________________________________________________________________________
match_histogram (InputLayer)    (None, 10, 30)       0
__________________________________________________________________________________________________
embedding (Embedding)           (None, 10, 300)      1083000     text_left[0][0]
__________________________________________________________________________________________________
dense_2 (Dense)                 (None, 10, 10)       310         match_histogram[0][0]
__________________________________________________________________________________________________
dense_1 (Dense)                 (None, 10, 1)        300         embedding[0][0]
__________________________________________________________________________________________________
dense_3 (Dense)                 (None, 10, 10)       110         dense_2[0][0]
__________________________________________________________________________________________________
attention_mask (Lambda)         (None, 10, 1)        0           dense_1[0][0]
__________________________________________________________________________________________________
dense_4 (Dense)                 (None, 10, 10)       110         dense_3[0][0]
__________________________________________________________________________________________________
attention_probs (Lambda)        (None, 10, 1)        0           attention_mask[0][0]
__________________________________________________________________________________________________
dense_5 (Dense)                 (None, 10, 1)        11          dense_4[0][0]
__________________________________________________________________________________________________
dot_1 (Dot)                     (None, 1, 1)         0           attention_probs[0][0]
                                                                 dense_5[0][0]
__________________________________________________________________________________________________
flatten_1 (Flatten)             (None, 1)            0           dot_1[0][0]
__________________________________________________________________________________________________
dense_6 (Dense)                 (None, 1)            2           flatten_1[0][0]
==================================================================================================
Total params: 1,083,843
Trainable params: 1,083,843
Non-trainable params: 0
__________________________________________________________________________________________________
2019-04-11 14:26:45.996754: I tensorflow/core/platform/cpu_feature_guard.cc:141] Your CPU supports instructions that this TensorFlow binary was not compiled to use: AVX2
…
