<bug id='724' author='voladorlu' open_date='2019-04-23T07:32:24Z' closed_time='2019-04-23T08:32:31Z'>
	<summary>Index Error</summary>
	<description>
I'm trying to run matching algorithm taking CNN as the neural encoder. However, following error message shows up.
Colocations handled automatically by placer.
&lt;denchmark-h:hr&gt;&lt;/denchmark-h&gt;

&lt;denchmark-h:h1&gt;Layer (type)                    Output Shape         Param #     Connected to&lt;/denchmark-h&gt;

text_left (InputLayer)          (None, 30)           0
&lt;denchmark-h:hr&gt;&lt;/denchmark-h&gt;

text_right (InputLayer)         (None, 30)           0
&lt;denchmark-h:hr&gt;&lt;/denchmark-h&gt;

embedding (Embedding)           (None, 30, 300)      90000       text_left[0][0]
text_right[0][0]
&lt;denchmark-h:hr&gt;&lt;/denchmark-h&gt;

conv1d_1 (Conv1D)               (None, 30, 32)       28832       embedding[0][0]
&lt;denchmark-h:hr&gt;&lt;/denchmark-h&gt;

conv1d_2 (Conv1D)               (None, 30, 32)       28832       embedding[1][0]
&lt;denchmark-h:hr&gt;&lt;/denchmark-h&gt;

matching_layer_1 (MatchingLayer (None, 30, 30, 32)   0           conv1d_1[0][0]
conv1d_2[0][0]
&lt;denchmark-h:hr&gt;&lt;/denchmark-h&gt;

conv2d_1 (Conv2D)               (None, 30, 30, 16)   4624        matching_layer_1[0][0]
&lt;denchmark-h:hr&gt;&lt;/denchmark-h&gt;

max_pooling2d_1 (MaxPooling2D)  (None, 15, 15, 16)   0           conv2d_1[0][0]
&lt;denchmark-h:hr&gt;&lt;/denchmark-h&gt;

conv2d_2 (Conv2D)               (None, 15, 15, 32)   4640        max_pooling2d_1[0][0]
&lt;denchmark-h:hr&gt;&lt;/denchmark-h&gt;

max_pooling2d_2 (MaxPooling2D)  (None, 7, 7, 32)     0           conv2d_2[0][0]
&lt;denchmark-h:hr&gt;&lt;/denchmark-h&gt;

flatten_1 (Flatten)             (None, 1568)         0           max_pooling2d_2[0][0]
&lt;denchmark-h:hr&gt;&lt;/denchmark-h&gt;

dropout_1 (Dropout)             (None, 1568)         0           flatten_1[0][0]
&lt;denchmark-h:hr&gt;&lt;/denchmark-h&gt;

&lt;denchmark-h:h1&gt;dense_1 (Dense)                 (None, 1)            1569        dropout_1[0][0]&lt;/denchmark-h&gt;

Total params: 158,497
Trainable params: 158,497
Non-trainable params: 0
&lt;denchmark-h:hr&gt;&lt;/denchmark-h&gt;

WARNING:tensorflow:From /Users/xx/anaconda2/envs/py3-env/lib/python3.7/site-packages/tensorflow/python/ops/math_ops.py:3066: to_int32 (from tensorflow.python.ops.math_ops) is deprecated and will be removed in a future version.
Instructions for updating:
…
