…
model.params['dropout_rate'] = 0.5
optimizer = keras.optimizers.Adamax(lr=0.0001, beta_1=0.9, beta_2=0.999, epsilon=None, decay=0.0)
model.params['optimizer'] = 'adagrad'
model.guess_and_fill_missing_params()
model.build()
model.compile()
model.backend.summary()
&lt;denchmark-code&gt;__________________________________________________________________________________________________
Layer (type)                    Output Shape         Param #     Connected to                     
==================================================================================================
text_left (InputLayer)          (None, 30)           0                                            
__________________________________________________________________________________________________
text_right (InputLayer)         (None, 30)           0                                            
__________________________________________________________________________________________________
embedding (Embedding)           (None, 30, 300)      19189500    text_left[0][0]                  
                                                                 text_right[0][0]                 
__________________________________________________________________________________________________
conv1d_2 (Conv1D)               (None, 30, 32)       28832       embedding[0][0]                  
__________________________________________________________________________________________________
dropout_3 (Dropout)             (None, 30, 32)       0           conv1d_2[0][0]                   
__________________________________________________________________________________________________
conv1d_3 (Conv1D)               (None, 30, 32)       28832       embedding[1][0]                  
__________________________________________________________________________________________________
max_pooling1d_1 (MaxPooling1D)  (None, 1, 32)        0           dropout_3[0][0]                  
__________________________________________________________________________________________________
dropout_4 (Dropout)             (None, 30, 32)       0           conv1d_3[0][0]                   
__________________________________________________________________________________________________
reshape_2 (Reshape)             (None, 32)           0           max_pooling1d_1[0][0]            
__________________________________________________________________________________________________
max_pooling1d_2 (MaxPooling1D)  (None, 7, 32)        0           dropout_4[0][0]                  
__________________________________________________________________________________________________
lambda_1 (Lambda)               (None, 30, 30)       0           text_left[0][0]                  
                                                                 text_right[0][0]                 
__________________________________________________________________________________________________
dense_3 (Dense)                 (None, 32)           1056        reshape_2[0][0]                  
__________________________________________________________________________________________________
conv1d_4 (Conv1D)               (None, 7, 32)        1056        max_pooling1d_2[0][0]            
__________________________________________________________________________________________________
conv1d_1 (Conv1D)               (None, 30, 32)       28832       lambda_1[0][0]                   
__________________________________________________________________________________________________
lambda_2 (Lambda)               (None, 1, 32)        0           dense_3[0][0]                    
__________________________________________________________________________________________________
dropout_5 (Dropout)             (None, 7, 32)        0           conv1d_4[0][0]                   
__________________________________________________________________________________________________
dropout_1 (Dropout)             (None, 30, 32)       0           conv1d_1[0][0]                   
__________________________________________________________________________________________________
lambda_3 (Lambda)               (None, 7, 32)        0           lambda_2[0][0]                   
                                                                 dropout_5[0][0]                  
__________________________________________________________________________________________________
reshape_1 (Reshape)             (None, 960)          0           dropout_1[0][0]                  
__________________________________________________________________________________________________
reshape_3 (Reshape)             (None, 224)          0           lambda_3[0][0]                   
__________________________________________________________________________________________________
dense_1 (Dense)                 (None, 32)           30752       reshape_1[0][0]                  
__________________________________________________________________________________________________
dense_4 (Dense)                 (None, 32)           7200        reshape_3[0][0]                  
__________________________________________________________________________________________________
dropout_2 (Dropout)             (None, 32)           0           dense_1[0][0]                    
__________________________________________________________________________________________________
dropout_6 (Dropout)             (None, 32)           0           dense_4[0][0]                    
__________________________________________________________________________________________________
dense_2 (Dense)                 (None, 1)            33          dropout_2[0][0]                  
__________________________________________________________________________________________________
dense_5 (Dense)                 (None, 1)            33          dropout_6[0][0]                  
__________________________________________________________________________________________________
add_1 (Add)                     (None, 1)            0           dense_2[0][0]                    
                                                                 dense_5[0][0]                    
__________________________________________________________________________________________________
dense_6 (Dense)                 (None, 2)            4           add_1[0][0]                      
==================================================================================================
Total params: 19,316,130
Trainable params: 19,316,130
Non-trainable params: 0
__________________________________________________________________________________________________
&lt;/denchmark-code&gt;

print("loading embedding ...")
glove_embedding = mz.datasets.embeddings.load_glove_embedding(dimension=300)
…
