…
fairseq.tasks.translation | [src] dictionary: 48947 types\n 2020-04-29 21:50:57 | INFO | fairseq.tasks.translation | [tgt] dictionary: 48613 types\n 2020-04-29 21:50:57 | INFO | fairseq.data.data_utils | loaded 8204 examples from: temp/bpe/bin/valid.src-tgt.src\n 2020-04-29 21:50:57 | INFO | fairseq.data.data_utils | loaded 8204 examples from: temp/bpe/bin/valid.src-tgt.tgt\n 2020-04-29 21:50:57 | INFO | fairseq.tasks.translation | temp/bpe/bin valid src-tgt 8204 examples\n 2020-04-29 21:50:58 | INFO | fairseq_cli.train | TransformerModel(\n   (encoder): TransformerEncoder(\n     (embed_tokens): Embedding(48947, 256, padding_idx=1)\n     (embed_positions): SinusoidalPositionalEmbedding()\n     (layers): ModuleList(\n       (0): TransformerEncoderLayer(\n         (self_attn): MultiheadAttention(\n           (k_proj): Linear(in_features=256, out_features=256, bias=True)\n           (v_proj): Linear(in_features=256, out_features=256, bias=True)\n           (q_proj): Linear(in_features=256, out_features=256, bias=True)\n           (out_proj): Linear(in_features=256, out_features=256, bias=True)\n         )\n         (self_attn_layer_norm): LayerNorm((256,), eps=1e-05, elementwise_affine=True)\n         (fc1): Linear(in_features=256, out_features=256, bias=True)\n         (fc2): Linear(in_features=256, out_features=256, bias=True)\n         (final_layer_norm): LayerNorm((256,), eps=1e-05, elementwise_affine=True)\n       )\n       (1): TransformerEncoderLayer(\n         (self_attn): MultiheadAttention(\n           (k_proj): Linear(in_features=256, out_features=256, bias=True)\n           (v_proj): Linear(in_features=256, out_features=256, bias=True)\n           (q_proj): Linear(in_features=256, out_features=256, bias=True)\n           (out_proj): Linear(in_features=256, out_features=256, bias=True)\n         )\n         (self_attn_layer_norm): LayerNorm((256,), eps=1e-05, elementwise_affine=True)\n         (fc1): Linear(in_features=256, out_features=256, bias=True)\n         (fc2): Linear(in_features=256, out_features=256, bias=True)\n         (final_layer_norm): LayerNorm((256,), eps=1e-05, elementwise_affine=True)\n       )\n       (2): TransformerEncoderLayer(\n         (self_attn): MultiheadAttention(\n           (k_proj): Linear(in_features=256, out_features=256, bias=True)\n           (v_proj): Linear(in_features=256, out_features=256, bias=True)\n           (q_proj): Linear(in_features=256, out_features=256, bias=True)\n           (out_proj): Linear(in_features=256, out_features=256, bias=True)\n         )\n         (self_attn_layer_norm): LayerNorm((256,), eps=1e-05, elementwise_affine=True)\n         (fc1): Linear(in_features=256, out_features=256, bias=True)\n         (fc2): Linear(in_features=256, out_features=256, bias=True)\n         (final_layer_norm): LayerNorm((256,), eps=1e-05, elementwise_affine=True)\n       )\n       (3): TransformerEncoderLayer(\n         (self_attn): MultiheadAttention(\n           (k_proj): Linear(in_features=256, out_features=256, bias=True)\n           (v_proj): Linear(in_features=256, out_features=256, bias=True)\n           (q_proj): Linear(in_features=256, out_features=256, bias=True)\n           (out_proj): Linear(in_features=256, out_features=256, bias=True)\n         )\n         (self_attn_layer_norm): LayerNorm((256,), eps=1e-05, elementwise_affine=True)\n         (fc1): Linear(in_features=256, out_features=256, bias=True)\n         (fc2): Linear(in_features=256, out_features=256, bias=True)\n         (final_layer_norm): LayerNorm((256,), eps=1e-05, elementwise_affine=True)\n       )\n     )\n     (layer_norm): LayerNorm((256,), eps=1e-05, elementwise_affine=True)\n   )\n   (decoder): TransformerDecoder(\n     (embed_tokens): Embedding(48613, 256, padding_idx=1)\n     (embed_positions): SinusoidalPositionalEmbedding()\n     (layers): ModuleList(\n       (0): TransformerDecoderLayer(\n         (self_attn): MultiheadAttention(\n           (k_proj): Linear(in_features=256, out_features=256, bias=True)\n           (v_proj): Linear(in_features=256, out_features=256, bias=True)\n           (q_proj): Linear(in_features=256, out_features=256, bias=True)\n           (out_proj): Linear(in_features=256, out_features=256, bias=True)\n         )\n         (self_attn_layer_norm): LayerNorm((256,), eps=1e-05, elementwise_affine=True)\n         (encoder_attn): MultiheadAttention(\n           (k_proj): Linear(in_features=256, out_features=256, bias=True)\n           (v_proj): Linear(in_features=256, out_features=256, bias=True)\n           (q_proj): Linear(in_features=256, out_features=256, bias=True)\n           (out_proj): Linear(in_features=256, out_features=256, bias=True)\n         )\n         (encoder_attn_layer_norm): LayerNorm((256,), eps=1e-05, elementwise_affine=True)\n         (fc1): Linear(in_features=256, out_features=256, bias=True)\n         (fc2): Linear(in_features=256, out_features=256, bias=True)\n         (final_layer_norm): LayerNorm((256,), eps=1e-05, elementwise_affine=True)\n       )\n       (1): TransformerDecoderLayer(\n         (self_attn): MultiheadAttention(\n           (k_proj): Linear(in_features=256, out_features=256, bias=True)\n           (v_proj): Linear(in_features=256, out_features=256, bias=True)\n           (q_proj): Linear(in_features=256, out_features=256, bias=True)\n           (out_proj): Linear(in_features=256, out_features=256, bias=True)\n         )\n         (self_attn_layer_norm): LayerNorm((256,), eps=1e-05, elementwise_affine=True)\n         (encoder_attn): MultiheadAttention(\n           (k_proj): Linear(in_features=256, out_features=256, bias=True)\n           (v_proj): Linear(in_features=256, out_features=256, bias=True)\n           (q_proj): Linear(in_features=256, out_features=256, bias=True)\n           (out_proj): Linear(in_features=256, out_features=256, bias=True)\n         )\n         (encoder_attn_layer_norm): LayerNorm((256,), eps=1e-05, elementwise_affine=True)\n         (fc1): Linear(in_features=256, out_features=256, bias=True)\n         (fc2): Linear(in_features=256, out_features=256, bias=True)\n         (final_layer_norm): LayerNorm((256,), eps=1e-05, elementwise_affine=True)\n       )\n       (2): TransformerDecoderLayer(\n         (self_attn): MultiheadAttention(\n           (k_proj): Linear(in_features=256, out_features=256, bias=True)\n           (v_proj): Linear(in_features=256, out_features=256, bias=True)\n           (q_proj): Linear(in_features=256, out_features=256, bias=True)\n           (out_proj): Linear(in_features=256, out_features=256, bias=True)\n         )\n         (self_attn_layer_norm): LayerNorm((256,), eps=1e-05, elementwise_affine=True)\n         (encoder_attn): MultiheadAttention(\n           (k_proj): Linear(in_features=256, out_features=256, bias=True)\n           (v_proj): Linear(in_features=256, out_features=256, bias=True)\n           (q_proj): Linear(in_features=256, out_features=256, bias=True)\n           (out_proj): Linear(in_features=256, out_features=256, bias=True)\n         )\n         (encoder_attn_layer_norm): LayerNorm((256,), eps=1e-05, elementwise_affine=True)\n         (fc1): Linear(in_features=256, out_features=256, bias=True)\n         (fc2): Linear(in_features=256, out_features=256, bias=True)\n         (final_layer_norm): LayerNorm((256,), eps=1e-05, elementwise_affine=True)\n       )\n       (3): TransformerDecoderLayer(\n         (self_attn): MultiheadAttention(\n           (k_proj): Linear(in_features=256, out_features=256, bias=True)\n           (v_proj): Linear(in_features=256, out_features=256, bias=True)\n           (q_proj): Linear(in_features=256, out_features=256, bias=True)\n           (out_proj): Linear(in_features=256, out_features=256, bias=True)\n         )\n         (self_attn_layer_norm): LayerNorm((256,), eps=1e-05, elementwise_affine=True)\n         (encoder_attn): MultiheadAttention(\n           (k_proj): Linear(in_features=256, out_features=256, bias=True)\n           (v_proj): Linear(in_features=256, out_features=256, bias=True)\n           (q_proj): Linear(in_features=256, out_features=256, bias=True)\n           (out_proj): Linear(in_features=256, out_features=256, bias=True)\n         )\n         (encoder_attn_layer_norm): LayerNorm((256,), eps=1e-05, elementwise_affine=True)\n         (fc1): Linear(in_features=256, out_features=256, bias=True)\n         (fc2): Linear(in_features=256, out_features=256, bias=True)\n         (final_layer_norm): LayerNorm((256,), eps=1e-05, elementwise_affine=True)\n       )\n     )\n     (layer_norm): LayerNorm((256,), eps=1e-05, elementwise_affine=True)\n     (output_projection): Linear(in_features=256, out_features=48613, bias=False)\n   )\n )\n 2020-04-29 21:50:58 | INFO | fairseq_cli.train | model transformer, criterion CrossEntropyCriterion\n 2020-04-29 21:50:58 | INFO | fairseq_cli.train | num. model params: 41642240 (num. trained: 41642240)\n 2020-04-29 21:50:58 | INFO | fairseq_cli.train | training on 2 GPUs\n 2020-04-29 21:50:58 | INFO | fairseq_cli.train | max tokens per
…
fairseq.tasks.translation | [src] dictionary: 48947 types\n 2020-04-29 22:29:29 | INFO | fairseq.tasks.translation | [tgt] dictionary: 48613 types\n 2020-04-29 22:29:29 | INFO | fairseq.data.data_utils | loaded 8204 examples from: temp/bpe/bin/valid.src-tgt.src\n 2020-04-29 22:29:29 | INFO | fairseq.data.data_utils | loaded 8204 examples from: temp/bpe/bin/valid.src-tgt.tgt\n 2020-04-29 22:29:29 | INFO | fairseq.tasks.translation | temp/bpe/bin valid src-tgt 8204 examples\n 2020-04-29 22:29:29 | INFO | fairseq_cli.train | TransformerModel(\n   (encoder): TransformerEncoder(\n     (embed_tokens): Embedding(48947, 256, padding_idx=1)\n     (embed_positions): SinusoidalPositionalEmbedding()\n     (layers): ModuleList(\n       (0): TransformerEncoderLayer(\n         (self_attn): MultiheadAttention(\n           (k_proj): Linear(in_features=256, out_features=256, bias=True)\n           (v_proj): Linear(in_features=256, out_features=256, bias=True)\n           (q_proj): Linear(in_features=256, out_features=256, bias=True)\n           (out_proj): Linear(in_features=256, out_features=256, bias=True)\n         )\n         (self_attn_layer_norm): LayerNorm((256,), eps=1e-05, elementwise_affine=True)\n         (fc1): Linear(in_features=256, out_features=256, bias=True)\n         (fc2): Linear(in_features=256, out_features=256, bias=True)\n         (final_layer_norm): LayerNorm((256,), eps=1e-05, elementwise_affine=True)\n       )\n       (1): TransformerEncoderLayer(\n         (self_attn): MultiheadAttention(\n           (k_proj): Linear(in_features=256, out_features=256, bias=True)\n           (v_proj): Linear(in_features=256, out_features=256, bias=True)\n           (q_proj): Linear(in_features=256, out_features=256, bias=True)\n           (out_proj): Linear(in_features=256, out_features=256, bias=True)\n         )\n         (self_attn_layer_norm): LayerNorm((256,), eps=1e-05, elementwise_affine=True)\n         (fc1): Linear(in_features=256, out_features=256, bias=True)\n         (fc2): Linear(in_features=256, out_features=256, bias=True)\n         (final_layer_norm): LayerNorm((256,), eps=1e-05, elementwise_affine=True)\n       )\n       (2): TransformerEncoderLayer(\n         (self_attn): MultiheadAttention(\n           (k_proj): Linear(in_features=256, out_features=256, bias=True)\n           (v_proj): Linear(in_features=256, out_features=256, bias=True)\n           (q_proj): Linear(in_features=256, out_features=256, bias=True)\n           (out_proj): Linear(in_features=256, out_features=256, bias=True)\n         )\n         (self_attn_layer_norm): LayerNorm((256,), eps=1e-05, elementwise_affine=True)\n         (fc1): Linear(in_features=256, out_features=256, bias=True)\n         (fc2): Linear(in_features=256, out_features=256, bias=True)\n         (final_layer_norm): LayerNorm((256,), eps=1e-05, elementwise_affine=True)\n       )\n       (3): TransformerEncoderLayer(\n         (self_attn): MultiheadAttention(\n           (k_proj): Linear(in_features=256, out_features=256, bias=True)\n           (v_proj): Linear(in_features=256, out_features=256, bias=True)\n           (q_proj): Linear(in_features=256, out_features=256, bias=True)\n           (out_proj): Linear(in_features=256, out_features=256, bias=True)\n         )\n         (self_attn_layer_norm): LayerNorm((256,), eps=1e-05, elementwise_affine=True)\n         (fc1): Linear(in_features=256, out_features=256, bias=True)\n         (fc2): Linear(in_features=256, out_features=256, bias=True)\n         (final_layer_norm): LayerNorm((256,), eps=1e-05, elementwise_affine=True)\n       )\n     )\n     (layer_norm): LayerNorm((256,), eps=1e-05, elementwise_affine=True)\n   )\n   (decoder): TransformerDecoder(\n     (embed_tokens): Embedding(48613, 256, padding_idx=1)\n     (embed_positions): SinusoidalPositionalEmbedding()\n     (layers): ModuleList(\n       (0): TransformerDecoderLayer(\n         (self_attn): MultiheadAttention(\n           (k_proj): Linear(in_features=256, out_features=256, bias=True)\n           (v_proj): Linear(in_features=256, out_features=256, bias=True)\n           (q_proj): Linear(in_features=256, out_features=256, bias=True)\n           (out_proj): Linear(in_features=256, out_features=256, bias=True)\n         )\n         (self_attn_layer_norm): LayerNorm((256,), eps=1e-05, elementwise_affine=True)\n         (encoder_attn): MultiheadAttention(\n           (k_proj): Linear(in_features=256, out_features=256, bias=True)\n           (v_proj): Linear(in_features=256, out_features=256, bias=True)\n           (q_proj): Linear(in_features=256, out_features=256, bias=True)\n           (out_proj): Linear(in_features=256, out_features=256, bias=True)\n         )\n         (encoder_attn_layer_norm): LayerNorm((256,), eps=1e-05, elementwise_affine=True)\n         (fc1): Linear(in_features=256, out_features=256, bias=True)\n         (fc2): Linear(in_features=256, out_features=256, bias=True)\n         (final_layer_norm): LayerNorm((256,), eps=1e-05, elementwise_affine=True)\n       )\n       (1): TransformerDecoderLayer(\n         (self_attn): MultiheadAttention(\n           (k_proj): Linear(in_features=256, out_features=256, bias=True)\n           (v_proj): Linear(in_features=256, out_features=256, bias=True)\n           (q_proj): Linear(in_features=256, out_features=256, bias=True)\n           (out_proj): Linear(in_features=256, out_features=256, bias=True)\n         )\n         (self_attn_layer_norm): LayerNorm((256,), eps=1e-05, elementwise_affine=True)\n         (encoder_attn): MultiheadAttention(\n           (k_proj): Linear(in_features=256, out_features=256, bias=True)\n           (v_proj): Linear(in_features=256, out_features=256, bias=True)\n           (q_proj): Linear(in_features=256, out_features=256, bias=True)\n           (out_proj): Linear(in_features=256, out_features=256, bias=True)\n         )\n         (encoder_attn_layer_norm): LayerNorm((256,), eps=1e-05, elementwise_affine=True)\n         (fc1): Linear(in_features=256, out_features=256, bias=True)\n         (fc2): Linear(in_features=256, out_features=256, bias=True)\n         (final_layer_norm): LayerNorm((256,), eps=1e-05, elementwise_affine=True)\n       )\n       (2): TransformerDecoderLayer(\n         (self_attn): MultiheadAttention(\n           (k_proj): Linear(in_features=256, out_features=256, bias=True)\n           (v_proj): Linear(in_features=256, out_features=256, bias=True)\n           (q_proj): Linear(in_features=256, out_features=256, bias=True)\n           (out_proj): Linear(in_features=256, out_features=256, bias=True)\n         )\n         (self_attn_layer_norm): LayerNorm((256,), eps=1e-05, elementwise_affine=True)\n         (encoder_attn): MultiheadAttention(\n           (k_proj): Linear(in_features=256, out_features=256, bias=True)\n           (v_proj): Linear(in_features=256, out_features=256, bias=True)\n           (q_proj): Linear(in_features=256, out_features=256, bias=True)\n           (out_proj): Linear(in_features=256, out_features=256, bias=True)\n         )\n         (encoder_attn_layer_norm): LayerNorm((256,), eps=1e-05, elementwise_affine=True)\n         (fc1): Linear(in_features=256, out_features=256, bias=True)\n         (fc2): Linear(in_features=256, out_features=256, bias=True)\n         (final_layer_norm): LayerNorm((256,), eps=1e-05, elementwise_affine=True)\n       )\n       (3): TransformerDecoderLayer(\n         (self_attn): MultiheadAttention(\n           (k_proj): Linear(in_features=256, out_features=256, bias=True)\n           (v_proj): Linear(in_features=256, out_features=256, bias=True)\n           (q_proj): Linear(in_features=256, out_features=256, bias=True)\n           (out_proj): Linear(in_features=256, out_features=256, bias=True)\n         )\n         (self_attn_layer_norm): LayerNorm((256,), eps=1e-05, elementwise_affine=True)\n         (encoder_attn): MultiheadAttention(\n           (k_proj): Linear(in_features=256, out_features=256, bias=True)\n           (v_proj): Linear(in_features=256, out_features=256, bias=True)\n           (q_proj): Linear(in_features=256, out_features=256, bias=True)\n           (out_proj): Linear(in_features=256, out_features=256, bias=True)\n         )\n         (encoder_attn_layer_norm): LayerNorm((256,), eps=1e-05, elementwise_affine=True)\n         (fc1): Linear(in_features=256, out_features=256, bias=True)\n         (fc2): Linear(in_features=256, out_features=256, bias=True)\n         (final_layer_norm): LayerNorm((256,), eps=1e-05, elementwise_affine=True)\n       )\n     )\n     (layer_norm): LayerNorm((256,), eps=1e-05, elementwise_affine=True)\n     (output_projection): Linear(in_features=256, out_features=48613, bias=False)\n   )\n )\n 2020-04-29 22:29:29 | INFO | fairseq_cli.train | model transformer, criterion CrossEntropyCriterion\n 2020-04-29 22:29:29 | INFO | fairseq_cli.train | num. model params: 41642240 (num. trained: 41642240)\n 2020-04-29 22:29:29 | INFO | fairseq_cli.train | training on 2 GPUs\n 2020-04-29 22:29:29 | INFO | fairseq_cli.train | max tokens per
…
fairseq.tasks.translation | [src] dictionary: 48947 types\n 2020-04-29 22:53:40 | INFO | fairseq.tasks.translation | [tgt] dictionary: 48613 types\n 2020-04-29 22:53:40 | INFO | fairseq.data.data_utils | loaded 8204 examples from: temp/bpe/bin/valid.src-tgt.src\n 2020-04-29 22:53:40 | INFO | fairseq.data.data_utils | loaded 8204 examples from: temp/bpe/bin/valid.src-tgt.tgt\n 2020-04-29 22:53:40 | INFO | fairseq.tasks.translation | temp/bpe/bin valid src-tgt 8204 examples\n 2020-04-29 22:53:40 | INFO | fairseq_cli.train | TransformerModel(\n   (encoder): TransformerEncoder(\n     (embed_tokens): Embedding(48947, 256, padding_idx=1)\n     (embed_positions): SinusoidalPositionalEmbedding()\n     (layers): ModuleList(\n       (0): TransformerEncoderLayer(\n         (self_attn): MultiheadAttention(\n           (k_proj): Linear(in_features=256, out_features=256, bias=True)\n           (v_proj): Linear(in_features=256, out_features=256, bias=True)\n           (q_proj): Linear(in_features=256, out_features=256, bias=True)\n           (out_proj): Linear(in_features=256, out_features=256, bias=True)\n         )\n         (self_attn_layer_norm): LayerNorm((256,), eps=1e-05, elementwise_affine=True)\n         (fc1): Linear(in_features=256, out_features=256, bias=True)\n         (fc2): Linear(in_features=256, out_features=256, bias=True)\n         (final_layer_norm): LayerNorm((256,), eps=1e-05, elementwise_affine=True)\n       )\n       (1): TransformerEncoderLayer(\n         (self_attn): MultiheadAttention(\n           (k_proj): Linear(in_features=256, out_features=256, bias=True)\n           (v_proj): Linear(in_features=256, out_features=256, bias=True)\n           (q_proj): Linear(in_features=256, out_features=256, bias=True)\n           (out_proj): Linear(in_features=256, out_features=256, bias=True)\n         )\n         (self_attn_layer_norm): LayerNorm((256,), eps=1e-05, elementwise_affine=True)\n         (fc1): Linear(in_features=256, out_features=256, bias=True)\n         (fc2): Linear(in_features=256, out_features=256, bias=True)\n         (final_layer_norm): LayerNorm((256,), eps=1e-05, elementwise_affine=True)\n       )\n       (2): TransformerEncoderLayer(\n         (self_attn): MultiheadAttention(\n           (k_proj): Linear(in_features=256, out_features=256, bias=True)\n           (v_proj): Linear(in_features=256, out_features=256, bias=True)\n           (q_proj): Linear(in_features=256, out_features=256, bias=True)\n           (out_proj): Linear(in_features=256, out_features=256, bias=True)\n         )\n         (self_attn_layer_norm): LayerNorm((256,), eps=1e-05, elementwise_affine=True)\n         (fc1): Linear(in_features=256, out_features=256, bias=True)\n         (fc2): Linear(in_features=256, out_features=256, bias=True)\n         (final_layer_norm): LayerNorm((256,), eps=1e-05, elementwise_affine=True)\n       )\n       (3): TransformerEncoderLayer(\n         (self_attn): MultiheadAttention(\n           (k_proj): Linear(in_features=256, out_features=256, bias=True)\n           (v_proj): Linear(in_features=256, out_features=256, bias=True)\n           (q_proj): Linear(in_features=256, out_features=256, bias=True)\n           (out_proj): Linear(in_features=256, out_features=256, bias=True)\n         )\n         (self_attn_layer_norm): LayerNorm((256,), eps=1e-05, elementwise_affine=True)\n         (fc1): Linear(in_features=256, out_features=256, bias=True)\n         (fc2): Linear(in_features=256, out_features=256, bias=True)\n         (final_layer_norm): LayerNorm((256,), eps=1e-05, elementwise_affine=True)\n       )\n     )\n   )\n   (decoder): TransformerDecoder(\n     (embed_tokens): Embedding(48613, 256, padding_idx=1)\n     (embed_positions): SinusoidalPositionalEmbedding()\n     (layers): ModuleList(\n       (0): TransformerDecoderLayer(\n         (self_attn): MultiheadAttention(\n           (k_proj): Linear(in_features=256, out_features=256, bias=True)\n           (v_proj): Linear(in_features=256, out_features=256, bias=True)\n           (q_proj): Linear(in_features=256, out_features=256, bias=True)\n           (out_proj): Linear(in_features=256, out_features=256, bias=True)\n         )\n         (self_attn_layer_norm): LayerNorm((256,), eps=1e-05, elementwise_affine=True)\n         (encoder_attn): MultiheadAttention(\n           (k_proj): Linear(in_features=256, out_features=256, bias=True)\n           (v_proj): Linear(in_features=256, out_features=256, bias=True)\n           (q_proj): Linear(in_features=256, out_features=256, bias=True)\n           (out_proj): Linear(in_features=256, out_features=256, bias=True)\n         )\n         (encoder_attn_layer_norm): LayerNorm((256,), eps=1e-05, elementwise_affine=True)\n         (fc1): Linear(in_features=256, out_features=256, bias=True)\n         (fc2): Linear(in_features=256, out_features=256, bias=True)\n         (final_layer_norm): LayerNorm((256,), eps=1e-05, elementwise_affine=True)\n       )\n       (1): TransformerDecoderLayer(\n         (self_attn): MultiheadAttention(\n           (k_proj): Linear(in_features=256, out_features=256, bias=True)\n           (v_proj): Linear(in_features=256, out_features=256, bias=True)\n           (q_proj): Linear(in_features=256, out_features=256, bias=True)\n           (out_proj): Linear(in_features=256, out_features=256, bias=True)\n         )\n         (self_attn_layer_norm): LayerNorm((256,), eps=1e-05, elementwise_affine=True)\n         (encoder_attn): MultiheadAttention(\n           (k_proj): Linear(in_features=256, out_features=256, bias=True)\n           (v_proj): Linear(in_features=256, out_features=256, bias=True)\n           (q_proj): Linear(in_features=256, out_features=256, bias=True)\n           (out_proj): Linear(in_features=256, out_features=256, bias=True)\n         )\n         (encoder_attn_layer_norm): LayerNorm((256,), eps=1e-05, elementwise_affine=True)\n         (fc1): Linear(in_features=256, out_features=256, bias=True)\n         (fc2): Linear(in_features=256, out_features=256, bias=True)\n         (final_layer_norm): LayerNorm((256,), eps=1e-05, elementwise_affine=True)\n       )\n       (2): TransformerDecoderLayer(\n         (self_attn): MultiheadAttention(\n           (k_proj): Linear(in_features=256, out_features=256, bias=True)\n           (v_proj): Linear(in_features=256, out_features=256, bias=True)\n           (q_proj): Linear(in_features=256, out_features=256, bias=True)\n           (out_proj): Linear(in_features=256, out_features=256, bias=True)\n         )\n         (self_attn_layer_norm): LayerNorm((256,), eps=1e-05, elementwise_affine=True)\n         (encoder_attn): MultiheadAttention(\n           (k_proj): Linear(in_features=256, out_features=256, bias=True)\n           (v_proj): Linear(in_features=256, out_features=256, bias=True)\n           (q_proj): Linear(in_features=256, out_features=256, bias=True)\n           (out_proj): Linear(in_features=256, out_features=256, bias=True)\n         )\n         (encoder_attn_layer_norm): LayerNorm((256,), eps=1e-05, elementwise_affine=True)\n         (fc1): Linear(in_features=256, out_features=256, bias=True)\n         (fc2): Linear(in_features=256, out_features=256, bias=True)\n         (final_layer_norm): LayerNorm((256,), eps=1e-05, elementwise_affine=True)\n       )\n       (3): TransformerDecoderLayer(\n         (self_attn): MultiheadAttention(\n           (k_proj): Linear(in_features=256, out_features=256, bias=True)\n           (v_proj): Linear(in_features=256, out_features=256, bias=True)\n           (q_proj): Linear(in_features=256, out_features=256, bias=True)\n           (out_proj): Linear(in_features=256, out_features=256, bias=True)\n         )\n         (self_attn_layer_norm): LayerNorm((256,), eps=1e-05, elementwise_affine=True)\n         (encoder_attn): MultiheadAttention(\n           (k_proj): Linear(in_features=256, out_features=256, bias=True)\n           (v_proj): Linear(in_features=256, out_features=256, bias=True)\n           (q_proj): Linear(in_features=256, out_features=256, bias=True)\n           (out_proj): Linear(in_features=256, out_features=256, bias=True)\n         )\n         (encoder_attn_layer_norm): LayerNorm((256,), eps=1e-05, elementwise_affine=True)\n         (fc1): Linear(in_features=256, out_features=256, bias=True)\n         (fc2): Linear(in_features=256, out_features=256, bias=True)\n         (final_layer_norm): LayerNorm((256,), eps=1e-05, elementwise_affine=True)\n       )\n     )\n     (output_projection): Linear(in_features=256, out_features=48613, bias=False)\n   )\n )\n 2020-04-29 22:53:40 | INFO | fairseq_cli.train | model transformer, criterion CrossEntropyCriterion\n 2020-04-29 22:53:40 | INFO | fairseq_cli.train | num. model params: 41641216 (num. trained: 41641216)\n 2020-04-29 22:53:41 | INFO | fairseq_cli.train | training on 2 GPUs\n 2020-04-29 22:53:41 | INFO | fairseq_cli.train | max tokens per
…
